data/embeddings_cache/1826a580-519f-4bfc-b7c1-f8d5ff150369.npy (npy, 1664 bytes, 1 tensors)

array f4 [384]
0	0xbba1e022	-0.004940049
1	0x3de0b946	0.10972838
2	0x3c92dad5	0.017926613
3	0x3d073cbc	0.033016905
4	0x3c884fc2	0.016639594
5	0xbda4e58c	-0.08051595
6	0x3b5e1153	0.0033884838
7	0xbb478997	-0.0030447
8	0x3ce33e97	0.027739806
9	0x3bbea161	0.0058175777
10	0xbd29ccbc	-0.041455016
11	0xbd66b9fb	-0.05632971
12	0xbd70ec19	-0.05881891
13	0x3cf80617	0.030276341
14	0x3d022d69	0.031781588
15	0x3d21af18	0.039473623
16	0xbdd35a8b	-0.10320004
17	0xbdd8f18f	-0.10592949
18	0x3bc27539	0.005934384
19	0xbd8cb964	-0.06871298
20	0x3d5dddb4	0.05416651
21	0x3c15300a	0.009105692
22	0xbc6cf86b	-0.014463524
23	0xbd048949	-0.032357488
24	0x3c8cec58	0.017202541
25	0x3d1dc90d	0.038521815
26	0xbd177224	-0.036974087
27	0x3cf48efb	0.029853335
28	0x3bd3afb6	0.0064601554
29	0x3d930dcb	0.07180365
30	0x3d87a350	0.06622946
31	0x3d7c7f55	0.06164487
32	0xbd5d766d	-0.054068018
33	0x3d3bae49	0.04582051
34	0x3d57b4f7	0.052662816
35	0x3d1df2b8	0.038561553
36	0x3cca9032	0.02472696
37	0xbd679c2a	-0.056545414
38	0x3d9130d0	0.07089388
39	0x3d007de0	0.031370044
40	0x3dc820b4	0.097718626
41	0xbcc16275	-0.023606518
42	0xbce84674	-0.028353907
43	0xbd8efc77	-0.069817476
44	0x3c1a31a9	0.009411254
45	0xbdd6ea67	-0.104939274
46	0xbd652837	-0.055946555
47	0xbd3304f1	-0.043705884
48	0x3d0f6e3f	0.03501725
49	0x3d5ff510	0.05467707
50	0xbd5f1c66	-0.054470442
51	0xbda8aff9	-0.08236689
52	0xbc348e8c	-0.011020314
53	0x3cb2056c	0.021731101
54	0x3d760ddd	0.060071815
55	0x3d990a61	0.07472683
56	0xbd9733f4	-0.07382956
57	0x3c4224ea	0.011849621
58	0x3d174167	0.036927607
59	0xbdf58648	-0.11988503
60	0x3d2e805f	0.042602893
61	0xbdaf17d2	-0.08549465
62	0xbd75010b	-0.059815448
63	0xbb5aa04d	-0.0033359707
64	0xbce054ba	-0.02738415
65	0x3c8eb41d	0.01741987
66	0xbc7f815b	-0.015594806
67	0x3d4ef183	0.050523292
68	0x3d719023	0.05897535
69	0xbb9dbe4a	-0.004813944
70	0x3d76ce3d	0.060255278
71	0x3c8342e7	0.016023112
72	0xbd128284	-0.035769
73	0xbd7fdfd5	-0.062469322
74	0x3ca5c584	0.020235784
75	0x3d17542c	0.036945507
76	0x3d3598c5	0.044335146
77	0x3be9d93d	0.0071364925
78	0x3d2826a4	0.041052476
79	0xbcf1dfe8	-0.029525712
80	0xbd2ac369	-0.041690264
81	0xbdad2da5	-0.08455972
82	0xbc9c114f	-0.019051222
83	0x3da886bf	0.08228826
84	0x3c047e00	0.008086681
85	0x3d4ef3d5	0.050525505
86	0xbd0ab5d7	-0.033864822
87	0x3d63c64a	0.055609025
88	0xbc0ab66a	-0.008466342
89	0x3c37af45	0.011211221
90	0xbdb4708e	-0.088105306
91	0xbd53d4ef	-0.05171674
92	0xbd006fcc	-0.031356618
93	0x3cdf40fb	0.027252665
94	0xbd5f819e	-0.054566972
95	0x3d8fb9c6	0.07017855
96	0xbb6ed896	-0.0036445013
97	0xbd84b425	-0.06479672
98	0x3d0e910f	0.034806307
99	0x3d9afc62	0.075676695
100	0xb9d19c25	-0.00039979923
101	0xbd6100a8	-0.054932266
102	0xbc80b9d2	-0.015713606
103	0x3dab5ac6	0.08366923
104	0xbc470a16	-0.012148401
105	0xbc9f73b5	-0.019464353
106	0xbd92f3cb	-0.07175406
107	0xbb9a4ac0	-0.004708618
108	0xbd59758f	-0.05309063
109	0x3d9b3d70	0.07580078
110	0xbcb95deb	-0.022627791
111	0x3dbcb57b	0.09214302
112	0x3add71a9	0.0016894835
113	0xbca2c0ca	-0.01986732
114	0x3a221f26	0.0006184451
115	0x3d09fcf3	0.033688497
116	0xbd1f0335	-0.038821418
117	0x3cd2b456	0.025720757
118	0x3d01698a	0.03159479
119	0x3d5e84d6	0.0543259
120	0x3dfe026c	0.12402806
121	0xbd25ccd0	-0.040478528
122	0xbd1c56ac	-0.038168594
123	0x3d2b7476	0.041859113
124	0xbb8e36f8	-0.004340049
125	0xbcf0f8cc	-0.02941551
126	0x3d826176	0.063662454
127	0x098c021e	3.3705765e-33
128	0x3de40c5a	0.111351684
129	0x3d15b241	0.03654695
130	0x3d3257b7	0.043540683
131	0xbc9e3276	-0.019311171
132	0x3c56570f	0.01308228
133	0x3d122fb5	0.03569003
134	0xbccf883f	-0.025333522
135	0x3d2fe5e2	0.042943843
136	0xbb90f2df	-0.0044234837
137	0xbaa34048	-0.001245507
138	0xbd937a3e	-0.0720105
139	0x3c49e022	0.012321504
140	0x3ceaa67d	0.02864384
141	0xbd1df11d	-0.03856002
142	0x3bc57bdb	0.0060267276
143	0xbd73ba5b	-0.059503894
144	0x3d8aea6d	0.067829944
145	0x3d2516de	0.04030501
146	0x3c2919d5	0.0103211
147	0xbc090f91	-0.008365528
148	0xbd26d775	-0.04073282
149	0xbd7fea56	-0.06247934
150	0xbd9cf5a7	-0.07664042
151	0xbc807981	-0.015682938
152	0x3d74c640	0.05975938
153	0x3d1aa7ca	0.037757672
154	0x3cff022c	0.031128965
155	0xbbb53bd9	-0.005530816
156	0xbd90be9e	-0.07067607
157	0x3cb940ce	0.02261391
158	0x3ce08ba8	0.027410343
159	0x3c570063	0.013122651
160	0x3d2f19d8	0.042749256
161	0x3d324a51	0.043527905
162	0x3d92f292	0.07175173
163	0xbbe6d110	-0.007043965
164	0xbd3a4396	-0.04547461
165	0x3bc7b027	0.006093997
166	0xbde811c7	-0.11331516
167	0xbd998243	-0.074955486
168	0x3d57aa22	0.052652486
169	0x3c04fdb8	0.008117132
170	0xbdbd0a9b	-0.092305385
171	0xbc9d3a90	-0.019192964
172	0xbca13887	-0.019680275
173	0xbd23769e	-0.039908044
174	0x3d3f2766	0.046668433
175	0xbd9da6c9	-0.07697827
176	0x3da10087	0.07861429
177	0x3cb4f150	0.022087723
178	0xbd8cf8fc	-0.068834275
179	0x3d46c675	0.048529107
180	0x3b350360	0.002762042
181	0xbd82da7d	-0.063893296
182	0x3d839911	0.064256795
183	0xbd523e37	-0.051328864
184	0x3cd9fbfe	0.026609417
185	0xbc23ffea	-0.010009745
186	0xbd444072	-0.047913022
187	0xbd216fbf	-0.03941321
188	0x3d428a1e	0.047495
189	0xbc8daca1	-0.01729423
190	0x3d381014	0.04493721
191	0xbd21a99f	-0.039468404
192	0x3d7d3395	0.06181677
193	0x3c7afb45	0.015318696
194	0xbc92d615	-0.017924348
195	0x3cf410ce	0.02979317
196	0x3d255868	0.040367514
197	0x3d5f466a	0.05451051
198	0xbcc934ca	-0.024561305
199	0x3dbe2159	0.09283704
200	0xbcdf6466	-0.027269553
201	0x3d18b1b2	0.03727884
202	0xba6cd9fe	-0.0009035169
203	0xbd09c901	-0.033638958
204	0x3dcbc95d	0.099505164
205	0x3d5b1d08	0.053494483
206	0xbd4be87a	-0.049782254
207	0x3cf8eb21	0.030385556
208	0xbc4bea03	-0.012445929
209	0xbdefae8c	-0.11703214
210	0x3d06ae7b	0.03288124
211	0x3d00b8ba	0.03142617
212	0xbd1de146	-0.038544916
213	0x3cbdef62	0.023185436
214	0xbc24362e	-0.010022683
215	0x3ca139b3	0.019680833
216	0xbafb089f	-0.001915235
217	0xbc9716a2	-0.01844341
218	0xbdb87365	-0.09006385
219	0x3d5dd44c	0.05415754
220	0xbdb7a472	-0.08966912
221	0xbd096328	-0.03354183
222	0xbe0bbef8	-0.13647068
223	0x89a738b7	-4.0257122e-33
224	0xbd06724f	-0.032823857
225	0x3b6b548f	0.0035908555
226	0xbd7509bb	-0.059823733
227	0xbd170947	-0.036874082
228	0x3cb6822f	0.022278873
229	0xbd3361f5	-0.04379459
230	0x3d754adc	0.059885845
231	0x3d8676dc	0.065656394
232	0xb63cbb94	-2.8123368e-06
233	0x3daa73d7	0.08322876
234	0x3cc98bad	0.024602735
235	0xbdc0d4e7	-0.09415608
236	0xbc4744b6	-0.012162378
237	0xbdd7c492	-0.1053554
238	0x3ac46b50	0.0014985595
239	0x3cf32097	0.029678626
240	0xbcb401da	-0.02197354
241	0xbd8bd867	-0.06828385
242	0x3cac5c90	0.021040231
243	0xbd0338b8	-0.032036513
244	0xbd0bf9fc	-0.03417395
245	0x3c2590a6	0.010105288
246	0xbce3f11c	-0.02782493
247	0xbc47dbd3	-0.012198406
248	0x3bbea8e5	0.0058184736
249	0xbd1a22c9	-0.03763083
250	0x3d93860b	0.07203301
251	0xbd433fc4	-0.047668234
252	0xbd9753ca	-0.07389028
253	0xbd0884da	-0.033329822
254	0xbd020090	-0.031738818
255	0xbbc0d709	-0.005885009
