data/embeddings_cache/1e686b7d-ad8a-4eb0-b53a-a4770d063860.npy (npy, 1664 bytes, 1 tensors)

array f4 [384]
00000000: 34f5 7bbc e19f 883d 1e51 b2bc 750d 4d3c
00000010: bfad 123d b71a 88bc 9c5a 23bc 58bd 893d
00000020: 6bfd e93c 4f58 983b d751 a7bc a20f 08bd
00000030: 3823 81bd 77f9 333c 63d8 293b fbcf 83bc
00000040: 5c03 63bd 3cf6 b5bd 0dd3 f23c a76d b43b
00000050: 674f b83d 67a0 54bd 517b 7b3d adf7 1d3c
00000060: 5e96 1b3c 0072 5fbd 5aee dd38 9a9b 7d3c
00000070: c54f 5fbd f060 e53b b303 133e b304 98bc
00000080: 9b23 293c 672b ba3c e486 063d 8e5c c23d
00000090: deb5 293c 8307 71bd 952f 6dbd 4c25 a0bd
000000a0: bd0a 843d 78c8 2cbd bf22 d0bc 865f d7bc
000000b0: 6c14 07bc 2a30 a5bd 931d 8fbd 4415 63bc
000000c0: d546 6e3d 3d71 083d 45fd 3fbd 2a4c 99bd
000000d0: 600a 353d 21b4 b0bd 4eca 51bd c19b ba3d
000000e0: 50e3 3dbc 7ebf 3a3d 0b3d a7bc 1d43 d7bd
000000f0: 677f 983d 5b77 0cbe ae10 1a3a fbd9 7ebc
00000100: c274 cc3b 4473 af3d 9153 12bd 9894 a8bc
00000110: 8dce 65bd 7e07 1b3c af15 b23c 2d0f f9bc
00000120: c144 81bd bca2 6cbc a7c9 a83d f2ac 3e3c
00000130: 7bb7 c0bc fef6 0e3d 3118 633d d12a 65bb
00000140: 3bab 5cbd 415d 93bd 9d83 ecbc b4d9 973d
00000150: 1a97 183c d535 aa3d d665 aa3c 0c2b 333d
00000160: 5098 a93c 0fe4 113a a217 57bc ac66 77bc
00000170: 4e21 15bd 329d 3dbc c53e dd3b 1a38 653d
00000180: d5b1 39bd c2ad 9a3d 0421 c13c 9439 733c
00000190: 94d0 c7bc 4aa0 9e3d ec67 8a3a effc 393c
000001a0: 9685 cabc 0beb 6b3c 8f27 8c3c 0495 a0bd
000001b0: a999 9c3d 85e8 0a3d 41dc 9b3c 3953 b1bd
000001c0: 4c67 3dbc 9602 1a3d 4708 d1bc 3c57 063d
000001d0: 494d adbd b8fd 063e 2be7 4f3c 272e 7a3d
000001e0: 2bb4 c93d c9df e1bc 1e71 17bd ea89 fdbb
000001f0: 65cb cebb 0c43 f2bc 3b84 213d 4a1e b509
00000200: 720c 883d 3197 43bd a57b e43b 1468 7c3d
00000210: 9a05 033d c3ba 94bc 25e1 823d 9c4e 133d
00000220: d97c 7cbd 1e2c 72bc 362d a5bd 17a3 8dbc
00000230: 3f28 04bc caf0 aabc dada 9ebd 5db2 04bd
00000240: 0310 eebc 9e36 fa3b baf2 e43c 0985 dc3c
00000250: 084e 133d 6cf0 8ebc 4138 83bc 451d 87bd
00000260: ea86 d3bc e065 33bb c297 2f3a 5eff 033b
00000270: bcd7 95bc df2b 153c c368 eabc 160c 08bd
00000280: 1718 38bd b8f1 b33d bcd0 843b 10f8 053d
00000290: 1bd7 97bc 3926 5a3d 0c8f b0bd 3548 f3bc
000002a0: 94e2 dd3c 0e47 4abd 32d2 753c 8bfe 4cbd
000002b0: 72e0 8ebd 9aea 3dbd 61ee 233d 1ba0 f53c
000002c0: 5a45 193e 3cb5 473d f48c d4bd a6e8 a5bc
000002d0: fd4b f0bc 029a b1bd 748b d53c 932f 98bc
000002e0: bd2e 41bc b5e3 9aba df62 993c cc7c babd
000002f0: 1358 dd3c d942 8e3d 7c8f aa3c 3d04 89bb
00000300: ec86 553b e60b c33c b657 4f3d 4f72 a8bb
00000310: 2bd9 6d3d 0632 87bb f229 283c 5bd1 60bc
00000320: 09de b2ba 99a4 073d 0760 49bd 9000 81bc
00000330: 793f 653d 054d 813d e77f f8bc 1000 1c3d
00000340: 4be7 a43c 5923 e6bd d6ad c8bd c244 493d
00000350: 4057 b73c dc88 d03d 7a09 9f3c 6431 223c
00000360: 27d2 d53c bb88 2fbd 26f5 803c 6ecb a9bc
00000370: 8fbc fdbc 9b6e 9bbd f8d0 71bd d683 bf89
00000380: e555 323d e21f 48bd db01 05bd 8a38 b83c
00000390: f142 cc3d 56be 9b3d 77b1 b63d 0061 1d3d
000003a0: 7099 68b9 33b2 993d da3b 083d eaa0 70bd
000003b0: d591 663d ff56 00be e249 6d3c 7148 be3c
000003c0: c1e5 053d d286 3fbd ced4 083b b731 8abd
000003d0: e679 7ebd d066 f43c 6433 09bd 98c4 913d
000003e0: a34b 073b 6dd6 31bd 29c5 9d3d c6dd 043d
000003f0: c640 7dbd 8a9a a0bc a735 92bc ed77 9e3d
-0.015378285 0.066711195 -0.021767195 0.012515415 0.03581023 -0.016614301 -0.009970333 0.067255676
0.028563222 0.004649199 -0.020424766 -0.033218034 -0.063055456 0.01098477 0.002591633 -0.016090384
-0.055423126 -0.08884856 0.029641652 0.0055062356 0.0899952 -0.051910784 0.0613969 0.00964157
0.0094963 -0.05455208 0.000105824976 0.015478993 -0.054519434 0.0070000812 0.1435688 -0.018556928
0.01032343 0.022725774 0.032843485 0.0949031 0.010358302 -0.058845054 -0.057906706 -0.07819614
0.06447361 -0.04218337 -0.025407193 -0.026290666 -0.008244615 -0.08065827 -0.06988063 -0.013860051
0.05817302 0.033311117 -0.046872396 -0.0748523 0.044199347 -0.08628107 -0.051218323 0.09111739
-0.01158984 0.045592777 -0.02041485 -0.10510848 0.07446175 -0.13717405 0.0005877119 -0.0155549
0.0062395046 0.08566907 -0.035724226 -0.020578668 -0.056105185 0.0094622355 0.021738855 -0.030402744
-0.06311942 -0.014443096 0.08241587 0.011637913 -0.02352499 0.03490352 0.055442993 -0.0034968148
-0.053874236 -0.07195521 -0.028871352 0.074145705 0.009313369 0.08311049 0.020800512 0.043742225
0.020702511 0.00055652944 -0.013128193 -0.0151001625 -0.036408715 -0.011573123 0.0067518675 0.055961706
-0.04533561 0.07552673 0.023575313 0.014845271 -0.02439145 0.077454165 0.0010559536 0.011351808
-0.024721902 0.0143993 0.017108707 -0.078409225 0.07646496 0.033913154 0.019025924 -0.086584516
-0.011560272 0.037600122 -0.025516642 0.032798037 -0.084620066 0.13182724 0.012689392 0.06107917
0.098488174 -0.02757253 -0.03697311 -0.007737388 -0.0063108676 -0.029572986 0.039432745 4.360265e-33
0.06642999 -0.04775161 0.0069727474 0.061622694 0.031987764 -0.018155461 0.06390599 0.03596364
-0.0616425 -0.014781026 -0.08065264 -0.017289681 -0.008066236 -0.02086677 -0.077565864 -0.032396663
-0.02906037 0.0076359054 0.027947772 0.026918905 0.03596309 -0.017448626 -0.016018035 -0.065973796
-0.025821168 -0.0027373955 0.0006698334 0.0020141224 -0.018291347 0.009104698 -0.028614407 -0.03321465
-0.04494485 0.087863386 0.0040532034 0.032707274 -0.018535187 0.05325911 -0.08621034 -0.029697517
0.02708558 -0.04938417 0.015003728 -0.05004744 -0.06976403 -0.04636631 0.040022258 0.02998357
0.14967862 0.048756823 -0.10378447 -0.020252537 -0.029333109 -0.08671953 0.026067473 -0.018577373
-0.011790928 -0.001181713 0.018723903 -0.09105834 0.027019536 0.06946344 0.020820372 -0.0041814134
0.003258164 0.023809385 0.050620757 -0.00514058 0.058068436 -0.0041258363 0.010263907 -0.013721789
-0.0013646494 0.033115957 -0.049163844 -0.015747339 0.055968735 0.063135184 -0.030334426 0.038085997
0.02012982 -0.11237211 -0.097987816 0.04913784 0.022380471 0.10182354 0.019413698 0.009899471
0.026101185 -0.042855006 0.015741896 -0.020726886 -0.0309737 -0.07589456 -0.05903718 -4.6105555e-33
0.043538947 -0.04885853 -0.032472473 0.022487897 0.099737056 0.07604663 0.089205675 0.038422585
-0.00022182404 0.07504692 0.033260204 -0.05874721 0.05629142 -0.12533186 0.014482947 0.023227902
0.032689814 -0.046759434 0.0020878795 -0.067477636 -0.06212797 0.029834181 -0.033496276 0.071175754
0.0020644448 -0.043417383 0.07703621 0.032438062 -0.06182935 -0.01960494 -0.017847849 0.07737718
