data/embeddings_cache/2e0d1fbd-dfc4-48f0-b087-b307520cdcc0.npy (npy, 1664 bytes, 1 tensors)

array f4 [384]
0	0xbda6a635	-0.0813717
1	0x3de2fe49	0.11083657
2	0xbc892be5	-0.016744563
3	0x3d36d835	0.044639785
4	0xbcb35317	-0.021890206
5	0xbc8ba736	-0.017047506
6	0xbd65d484	-0.056110874
7	0x3c18ef1c	0.009334352
8	0x3c27c8f3	0.010240781
9	0xbc00040f	-0.007813468
10	0xbdc82dd1	-0.09774364
11	0xbd0ce43f	-0.03439736
12	0xbd745384	-0.05964996
13	0x3ce85bd3	0.028364098
14	0x3d6879a3	0.056756627
15	0x3c357897	0.011076114
16	0xbd9c4e88	-0.07632166
17	0xbd958ddb	-0.073024474
18	0x3cc18366	0.023622226
19	0xbdf03988	-0.11729723
20	0x3d9b225c	0.07574913
21	0xbc916a4e	-0.017750885
22	0x3cc7a28d	0.024369502
23	0x3cd58313	0.026063478
24	0xbc60b520	-0.013715059
25	0x3c2b6a7e	0.010462401
26	0x3c1dc73c	0.009630021
27	0x3cf415e8	0.029795602
28	0x3d20e389	0.039279494
29	0x3d928f9c	0.071562976
30	0xbc72916f	-0.014805182
31	0xbd3fd9ef	-0.046838697
32	0xbc9079fc	-0.017636292
33	0x3d0ee3a5	0.034885067
34	0x3c9c9a57	0.019116564
35	0x3db3d3e5	0.0878065
36	0x3d6c792b	0.057732742
37	0xbd05fde6	-0.03271284
38	0x3d2a326f	0.041552003
39	0x3ca361b1	0.019944044
40	0x3e0e45d1	0.1389382
41	0x3c79e34d	0.015251947
42	0xbd81a34e	-0.06329976
43	0xbdd26918	-0.10273951
44	0x3c417e28	0.011809863
45	0xbdbb735b	-0.09152862
46	0xbcfcee60	-0.030875385
47	0xbc989a61	-0.018628301
48	0xbd1919df	-0.03737819
49	0x3da902c2	0.08252479
50	0xbc2abe1b	-0.010421301
51	0xbdadbde7	-0.084834866
52	0x3ca8b353	0.020593321
53	0x3d943d80	0.07238293
54	0x3b115104	0.0022173533
55	0x3de66e51	0.1125151
56	0x3c2131a4	0.009838495
57	0x3bed27ca	0.0072374092
58	0x3d723dab	0.059140842
59	0xbdbd8a9f	-0.092549555
60	0x3d199e19	0.03750429
61	0xbdc8f95f	-0.09813189
62	0x3b7fd5ad	0.0039037273
63	0xbcfc05dd	-0.030764515
64	0x3cbf36f5	0.023341635
65	0xbb79c203	-0.0038110025
66	0xbda9b0b4	-0.082856566
67	0xbaf8f537	-0.0018993978
68	0x3d3f12d9	0.046648834
69	0x3bb6b502	0.005575777
70	0x3d30eb0c	0.04319291
71	0xbd2f7f4b	-0.042846005
72	0x3c4f606d	0.012657267
73	0xbd21308f	-0.03935295
74	0xb8ad05b5	-8.250346e-05
75	0xbc61c8ca	-0.013780782
76	0x3b279236	0.0025569326
77	0x3b0ed474	0.0021794112
78	0xbd0c9e4c	-0.03433065
79	0xbbeead66	-0.0072838543
80	0xbdda38c3	-0.10655358
81	0xbdd743a2	-0.10510947
82	0xbcf4fd91	-0.029906066
83	0x3da98c6d	0.08278737
84	0xbd0cb434	-0.034351543
85	0x3d023c5f	0.031795856
86	0xbc0fd8e3	-0.008779737
87	0x3cca0e2a	0.024664957
88	0x3d07f01a	0.033187963
89	0xbd37ec9a	-0.044903375
90	0xbd8c9f72	-0.06866349
91	0xbc7d3e54	-0.015456755
92	0xbd227d68	-0.039670378
93	0xbd4138bc	-0.047173247
94	0xbcd4aaf8	-0.02596043
95	0x3d102491	0.035191122
96	0xbcb9ded9	-0.02268927
97	0x3cbfd0e7	0.023415042
98	0x3cdf1115	0.027229825
99	0x3cd613d6	0.026132505
100	0xbb7e0214	-0.0038758563
101	0xbcbb9c8a	-0.022901792
102	0x3d52885d	0.051399577
103	0x3d1b3fb3	0.037902545
104	0x3d7263e8	0.05917731
105	0xbc48f7b2	-0.012266086
106	0xbd807694	-0.06272617
107	0xbc31b752	-0.01084693
108	0xbda1ee95	-0.07906834
109	0x3d8f2278	0.06988996
110	0xbc16d15e	-0.00920519
111	0x3d609978	0.05483386
112	0x3c2d9363	0.010594222
113	0x3ca4a7d3	0.020099556
114	0x3c58c8e1	0.013231487
115	0x3d3e67db	0.046485763
116	0xbd4d1a97	-0.050074186
117	0x3c576f6f	0.013149126
118	0xbbfb65df	-0.007672056
119	0x3dad4d44	0.08462003
120	0x3e04b025	0.12957819
121	0xbc95232a	-0.018205244
122	0xbce7968c	-0.028270029
123	0xbcc5ca08	-0.024144188
124	0xbcf6826b	-0.030091485
125	0xbd932d8c	-0.07186422
126	0x3ddc7be5	0.107658185
127	0x09821cd7	3.1323482e-33
128	0x3d9763de	0.07392095
129	0xbc044d3e	-0.008075057
130	0x3d4ba786	0.04972031
131	0xbd48df99	-0.049041364
132	0x3df7f8fa	0.121080354
133	0x3c1deb51	0.009638623
134	0x3cc9670b	0.024585268
135	0xbab202b4	-0.0013581128
136	0x3d93a471	0.07209099
137	0xbd2297a5	-0.0396954
138	0xbd9f10f8	-0.077669084
139	0x3ac858af	0.0015285219
140	0x3c8d0998	0.017216489
141	0xbccfd736	-0.025371175
142	0xbdb736de	-0.08946012
143	0xbd315892	-0.043297358
144	0x3d8c1e2e	0.06841694
145	0x3d0209d1	0.031747643
146	0x3d8e00f5	0.06933776
147	0x3c8756df	0.016520916
148	0x3cfe0b07	0.031011118
149	0xbd893a96	-0.067006275
150	0xbddfcee7	-0.10928135
151	0xbbda791f	-0.006667271
152	0x3cf986f0	0.030459851
153	0xbcf98467	-0.030458642
154	0x3d07e2c5	0.03317525
155	0xbbe07efb	-0.0068510748
156	0xbda14593	-0.07874598
157	0xbc340fb7	-0.010990075
158	0x3d2ad783	0.041709434
159	0x3d584c97	0.052807417
160	0xbc3c8f6c	-0.011508804
161	0x3d271252	0.040788956
162	0x3d2616ee	0.04054921
163	0x3c275e83	0.010215404
164	0x3ba876aa	0.005141099
165	0x3ced64e7	0.028978778
166	0xbd74ff8e	-0.05981403
167	0xbd049ff7	-0.032379117
168	0x3d81c4dc	0.06336376
169	0x3aa4f7e4	0.0012586084
170	0x3b731872	0.0037093428
171	0xbd82d555	-0.06388346
172	0xbd4a09b2	-0.049325652
173	0xbcd08298	-0.025452897
174	0x3d6adff8	0.0573425
175	0xbd9c6cda	-0.07637949
176	0x3dab7e80	0.08373737
177	0x3d415f1f	0.047209855
178	0xbc0dc722	-0.008653434
179	0x3a05bcc8	0.0005101678
180	0x3d95c50d	0.07312975
181	0xbde4843a	-0.11158033
182	0x3d35c206	0.04437449
183	0xbd32d507	-0.04366019
184	0x3db9f3f1	0.09079731
185	0x3bdbe39d	0.006710483
186	0xb801b65a	-3.0925825e-05
187	0xbd243f14	-0.04009922
188	0xbb8728cd	-0.004124737
189	0x3c9f5bd9	0.019452976
190	0x3d4bb696	0.049734674
191	0xbcf1f2a7	-0.029534651
192	0x3d834208	0.06409079
193	0xbc1d4c1e	-0.009600667
194	0xbd0471ff	-0.032335278
195	0x3d1f7ec2	0.038939245
196	0x3d270934	0.04078026
197	0x3d4011b5	0.046891887
198	0xbb2ddbc3	-0.0026528693
199	0x3dc0ac6f	0.09407889
200	0x3c883679	0.016627537
201	0x3cef8321	0.029237332
202	0xbbf963c5	-0.0076107704
203	0xbbbbd069	-0.0057316315
204	0x3dc52263	0.09625699
205	0xbc8670cb	-0.016411206
206	0xbd9eb2cb	-0.07748946
207	0x3d0c37d8	0.034232944
208	0x3999e53f	0.00029353236
209	0xbd9ff9b5	-0.078113
210	0xbd0263ce	-0.031833462
211	0x3d27a695	0.04093035
212	0xbc5cb57a	-0.013471002
213	0x3d89fb50	0.06737387
214	0xbd25af07	-0.040450122
215	0x3d344ad8	0.04401669
216	0x3c931fdd	0.01795953
217	0xbc295325	-0.010334765
218	0xbd5988af	-0.053108867
219	0x3c431183	0.011906031
220	0xbd60071a	-0.054694273
221	0x3c8575cc	0.016291521
222	0xbda8143a	-0.08206983
223	0x89695a35	-2.808877e-33
224	0x3c9b6284	0.018967874
225	0xbc37dc85	-0.01122201
226	0xbc5b14da	-0.013371671
227	0x3d1b8f4c	0.037978455
228	0x3d67175b	0.056418758
229	0xbd2c6ca1	-0.042095784
230	0x3da09c6b	0.07842334
231	0x3ca814bd	0.020517701
232	0x3d022ba4	0.0317799
233	0x3e2412a2	0.16022733
234	0x3d0f8990	0.0350433
235	0xbda1fb03	-0.07909205
236	0xbcf79627	-0.030222965
237	0xbd603bdf	-0.054744598
238	0x3cc0e4d6	0.023546617
239	0x3ce54364	0.027986236
240	0xbb51814e	-0.003196794
241	0xbd96026e	-0.07324682
242	0x3d8885bc	0.06666133
243	0xbda0524e	-0.078281984
244	0xbd5a10e1	-0.053238753
245	0x3d17fe1f	0.037107583
246	0xbd7d9edf	-0.06191909
247	0x3a3836c7	0.00070272054
248	0x3d91861e	0.07105659
249	0xbd4b9815	-0.049705584
250	0x3d5314c7	0.051533487
251	0x3bb6820f	0.0055697034
252	0xbd8fb011	-0.07016004
253	0xbd132d0f	-0.035931643
254	0xbd427ea5	-0.04748406
255	0xbd8a50b4	-0.06753674
