data/embeddings_cache/3174a1ae-3fe0-45a3-b473-31b992abdd98.npy (npy, 1664 bytes, 1 tensors)

array f4 [384]
-0.053316724 0.103874974 -0.0003084559 0.03031291 -0.023614692 -0.022520917 -0.04173552 -0.008994171
0.023627385 -0.004093049 -0.081021644 -0.04278461 -0.07142546 0.027920578 0.04756363 0.020150198
-0.07090178 -0.06715405 0.037311252 -0.13410042 0.078806646 -0.018440707 0.01284622 -0.0004997465
0.00037491595 0.04164684 -0.015870307 0.02608714 0.04134137 0.056013785 -0.011882114 -0.04945093
-0.014068482 0.046392284 0.0036420075 0.08641807 0.049643107 -0.041175164 0.062978655 0.010807062
0.09879453 0.01707547 -0.07600799 -0.088348374 0.02210059 -0.087736435 -0.019300986 -0.044756234
-0.02476818 0.089991905 -0.0038621684 -0.07792157 0.02341416 0.052542184 0.021022052 0.08902948
-0.016388994 0.008711297 0.02455456 -0.08813064 0.04676012 -0.09411062 -0.007260947 -0.041408114
0.052377548 -0.01850756 -0.052033164 -0.010712777 0.03589483 0.011320316 0.069353655 -0.051411882
-0.0071527376 -0.06711677 -0.00023894328 -0.017188892 -0.007184712 0.0013942122 -0.02449326 0.0028239212
-0.08781499 -0.085657 -0.022534542 0.088240825 -0.039352704 0.021754654 -0.027884781 0.025585841
0.015533844 -0.059233464 -0.0974204 -0.034047764 -0.02299753 -0.010130682 -0.015967514 0.025076592
-0.013150376 0.04314516 0.02253387 0.021636965 -0.0062765316 -0.022866733 0.031964354 0.009257796
0.06600098 0.00050746655 -0.05402779 0.001984833 -0.066373825 0.08128839 -0.030478349 0.06068493
-0.020203384 0.042822745 -0.0005290242 0.021249903 -0.040945847 -0.006132283 0.0027396136 0.089570224
0.15193564 -0.024272326 -0.03649352 -0.03509538 -0.029256247 -0.08019795 0.10243349 3.0198516e-33
0.09717964 -0.00874184 0.06208616 -0.02117915 0.1036316 0.0072694337 0.019391114 0.0052472884
0.06657018 -0.036290597 -0.06827562 0.0010591842 0.004693048 -0.045075674 -0.08270142 -0.055768553
0.051531624 0.032435812 0.038513213 0.035896327 0.025501117 -0.0635807 -0.09629171 0.007276786
0.054788508 -0.028957237 0.020796971 -0.009587524 -0.09614512 -0.017015379 0.03536391 0.037709754
-0.00841785 0.034065377 0.03679037 0.022387888 0.020422969 0.019451462 -0.049129006 -0.039478887
0.04912795 0.013238856 -0.017454144 -0.06314321 -0.05976114 -0.032359645 0.032679595 -0.07377844
0.083047375 0.06052143 -0.033531964 0.005239658 0.05982332 -0.10023525 0.047717143 -0.035069734
0.06333473 0.040206783 -0.028751262 -0.04971062 0.0030862058 0.0146982735 0.055536263 -0.043185446
0.05502643 -0.0019890005 -0.016281664 0.06297107 0.051582273 0.055787146 -0.017463475 0.08802824
0.008985862 0.017097551 0.0066976915 -0.016580217 0.082480565 -0.012321684 -0.06226316 0.017987529
0.0045345444 -0.09911098 -0.043087654 0.04086646 0.0064610033 0.09066534 -0.031351667 0.038501974
-0.00077781786 -0.018694872 -0.06287973 0.034537688 -0.031607382 -0.019547882 -0.09576307 -2.6448551e-33
0.015479548 -0.0112364385 -0.043381725 0.03070477 0.067190066 -0.04234791 0.08964337 0.038545907
0.017648367 0.1720876 0.04753751 -0.11070253 -0.032567125 -0.044354953 -0.009918051 0.039096024
-0.012319794 -0.054801803 0.07255141 -0.081569195 -0.053970646 0.012855898 -0.03218356 -0.003775675
0.05527233 -0.054346647 0.026728991 -0.023414027 -0.072879754 -0.06278331 -0.027983274 -0.03971102
00000000: a362 5abd 67bc d43d 40b8 a1b9 c852 f83c
00000010: 9973 c1bc c97d b8bc ddf2 2abd 4a5c 13bc
00000020: 388e c13c fc1e 86bb adee a5bd ea3e 2fbd
00000030: 8347 92bd b2b9 e43c 15d2 423d 0712 a53c
00000040: f434 91bd 1088 89bd afd3 183d 9f51 09be
00000050: 6165 a13d f710 97bc f478 523c 6b01 03ba
00000060: 5e90 c439 e095 2a3d 7202 82bc b3b4 d53c
00000070: 9255 293d b66e 653d 33ad 42bc 0f8d 4abd
00000080: 7e7f 66bc d605 3e3d bfae 6e3b f5fb b03d
00000090: 9256 4b3d 4aa7 28bd f4fa 803d 1a10 313c
000000a0: c954 ca3d dbe1 8b3c 14aa 9bbd feef b4bd
000000b0: 4c0c b53c 29af b3bd 1a1d 9ebc 5052 37bd
000000c0: a3e6 cabc ad4d b83d 6f1c 7dbb 5895 9fbd
000000d0: 0dcf bf3c 7936 573d 7036 ac3c 1755 b63d
000000e0: 3642 86bc d4b9 0e3c a526 c93c d67d b4bd
000000f0: 8a87 3f3d 12bd c0bd 3ded edbb 8e9b 29bd
00000100: d789 563d 2b9d 97bc ba20 55bd a584 2fbc
00000110: 7506 133d d978 393c 4a09 8e3d 4495 52bd
00000120: 8361 eabb 8474 89bd d98c 7ab9 b8cf 8cbc
00000130: bc6d ebbb 00be b63a 17a6 c8bc 8911 393b
00000140: 58d8 b3bd f06c afbd 5c9a b8bc 9bb7 b43d
00000150: 4d30 21bd d136 b23c a06e e4bc 6699 d13c
00000160: aa81 7e3c ca9e 72bd 5984 c7bd ab75 0bbd
00000170: 5165 bcbc 29fb 25bc 4ece 82bc 6d6d cd3c
00000180: ad74 57bc fbb8 303d f398 b83c 0140 b13c
00000190: 5dab cdbb 0453 bbbc 0eed 023d 03ae 173c
000001a0: 862b 873d 8107 053a 3e4c 5dbd f913 023b
000001b0: 00ef 87bd 877a a63d bbad f9bc c390 783d
000001c0: 9181 a5bc e766 2f3d 37ae 0aba 4714 ae3c
000001d0: d5b6 27bd 51f1 c8bb 178b 333b 9870 b73d
000001e0: 0495 1b3e c2d6 c6bc 3b7a 15bd 2cc0 0fbd
000001f0: ccaa efbc d33e a4bd a6c8 d13d 24e1 7a09
00000200: 1e06 c73d ef39 0fbc 0f4e 7e3d e67f adbc
00000210: ce3c d43d 6e34 ee3b 1dda 9e3c 72f1 ab3b
00000220: f255 883d 73a5 14bd 17d4 8bbd 53d4 8a3a
00000230: 24c8 993b 45a1 38bd 5d5f a9bd 916d 64bd
00000240: d312 533d 6adb 043d 08c0 1d3d 0708 133d
00000250: b8e7 d03c 9936 82bd 9734 c5bd 1b72 ee3b
00000260: ea69 603d ba37 edbc 695e aa3c fe14 1dbc
00000270: bce7 c4bd d663 8bbc bfd9 103d 8b75 1a3d
00000280: 06eb 09bc 2388 0b3d 80b1 163d ce66 b73c
00000290: 124e a73c ac58 9f3c 7f3b 49bd 9db4 21bd
000002a0: 643a 493d c9e7 583c fefb 8ebc 3a51 81bd
000002b0: 19c8 74bd 8c8b 04bd 0adb 053d 2719 97bd
000002c0: be14 aa3d 52e5 773d d058 09bd 70b1 ab3b
000002d0: 4c09 753d 2448 cdbd 0d73 433d 48a5 0fbd
000002e0: a4b5 813d deaf 243d c487 ebbc 5d9d 4bbd
000002f0: f141 4a3b 07d1 703c fe79 633d 39e3 30bd
00000300: 6563 613d e459 02bb 2061 85bc faf6 803d
00000310: ef47 533d 1081 643d 900f 8fbc 2648 b43d
00000320: 7039 133c 2a10 8c3c 4f78 db3b 3cd3 87bc
00000330: 92eb a83d e3e0 49bc a807 7fbd 955a 933c
00000340: 8496 943b b3fa cabd ae7c 30bd 9763 273d
00000350: d3b6 d33b c0ae b93d 9b6a 00bd 3fb4 1d3d
00000360: 79e6 4bba fd25 99bc 16c7 80bd 6477 0d3d
00000370: be76 01bd e122 a0bc 6e1f c4bd d9b9 5b89
00000380: ee9d 7d3c 0a19 38bc 09b1 31bd 9288 fb3c
00000390: f29a 893d 0175 2dbd f196 b73d 50e2 1d3d
000003a0: 4f93 903c bb37 303e b1b6 423d 02b8 e2bd
000003b0: 1b65 05bd 8aad 35bd 527f 22bc 2723 203d
000003c0: f6d8 49bc db77 60bd d595 943d c00d a7bd
000003d0: 5310 5dbd 8ba1 523c e9d2 03bd 5171 77bb
000003e0: 3d65 623d 979a 5ebd c2f6 da3c c6ce bfbc
000003f0: fb41 95bd 8994 80bd 2e3d e5bc 06a8 22bd
