data/embeddings_cache/387f5fe2-1ae6-4790-8cb3-b605364e0e67.npy (npy, 1664 bytes, 1 tensors)

array f4 [384]
000000 26 32 a8 bd 61 f7 e4 3d 7e ad 83 bc 2a e5 44 3d
       -0.0821269 0.11179996 -0.016073938 0.04807011
000010 be 08 9c bc ab e1 97 bc 34 64 58 bd 1b 76 42 3c
       -0.019047137 -0.018540224 -0.052829936 0.011868979
000020 6f d0 6a 3c 20 6c ef bb 67 5e ca bd f3 12 0f bd
       0.014331921 -0.0073065907 -0.09881287 -0.03493018
000030 22 73 6e bd 63 f8 f4 3c 0c e9 64 3d 4c d1 6c 3c
       -0.058215268 0.029903596 0.055886313 0.014454197
000040 f8 fd 96 bd 99 c9 90 bd cf cb 96 3c 0d 63 eb bd
       -0.073726594 -0.07069702 0.01840773 -0.11493502
000050 f9 cb 94 3d 93 23 b1 bc 9f 95 f3 3c f0 e8 f0 3c
       0.07265467 -0.021623408 0.02973443 0.029407948
000060 be dc 44 bc 95 21 f5 3a 0f 43 bf 3b bc 74 01 3d
       -0.01201552 0.0018702025 0.0058368514 0.031605467
000070 80 02 1b 3d dd 56 96 3d d1 bd 5d bc d2 6c 49 bd
       0.03784418 0.073407866 -0.013534025 -0.049176045
000080 29 90 a6 bc fa 67 11 3d d2 94 91 3c e2 91 ad 3d
       -0.020332413 0.03549955 0.017771158 0.084750906
000090 96 3c 6d 3d 7f 66 02 bd 00 b1 1f 3d 62 fd b5 3c
       0.057919107 -0.03183603 0.03898716 0.022215549
0000a0 df 3b 13 3e 21 77 83 3c a8 d4 89 bd 72 cf cd bd
       0.14378308 0.016048016 -0.06730014 -0.10049333
0000b0 e1 9f 30 3c a1 aa b8 bd 1f bd 08 bd 2f df 7e bc
       0.010780306 -0.0901692 -0.033383485 -0.015556141
0000c0 15 bc 1c bd 1f 14 b4 3d 72 5d 0e bc f3 eb a8 bd
       -0.038265307 0.087929 -0.008689271 -0.08248129
0000d0 3e bb ad 3c 75 d7 8f 3d 4d 6e 6a ba f4 86 e2 3d
       0.021207448 0.07023517 -0.00089428277 0.110608965
0000e0 18 d4 63 3c 90 2b 1a 3c 07 17 7e 3d 95 cf b9 bd
       0.013905548 0.0094098 0.06203368 -0.09072796
0000f0 33 a9 07 3d a2 66 c6 bd f7 51 b3 3b 7c e1 0b bd
       0.033120345 -0.096875444 0.0054724175 -0.034150586
000100 04 9f d6 3c cb 3e ae b9 90 44 a8 bd 2a 09 13 bc
       0.026198871 -0.0003323465 -0.08216202 -0.008974353
000110 96 5a 20 3d 81 26 09 3c cf 15 3b 3d 69 3f 33 bd
       0.03914889 0.008370996 0.045675095 -0.043761645
000120 bb 92 55 3c ad aa 23 bd 23 c1 ea ba 47 cb 88 bc
       0.013035472 -0.03995769 -0.0017910342 -0.016698493
000130 ed 78 81 3a 35 8b 97 3b be 78 25 bd a5 fe 85 bb
       0.0009877958 0.004624749 -0.04039835 -0.004089194
000140 5d 60 de bd d7 51 d5 bd 6c f7 f2 bc 46 ad a5 3d
       -0.108582236 -0.10416 -0.029658996 0.0808969
000150 29 11 0f bd a4 41 03 3d 82 9a 68 bb 07 2f e4 3c
       -0.034928475 0.03204502 -0.0035492484 0.027854456
000160 ac 41 0e 3d 90 ae 44 bd 2c af 93 bd 18 6a 69 bc
       0.0347306 -0.04801804 -0.07211146 -0.014246486
000170 1c d1 2c bd 4e f7 46 bd b8 58 9d bc ca b4 0e 3d
       -0.04219161 -0.048575692 -0.019207343 0.034840383
000180 60 f8 de bc ce 5a c1 3c a6 e9 a2 3c e3 fe a9 3c
       -0.027218044 0.02360287 0.019886803 0.020751422
000190 8d a1 b6 bb 45 0b c0 bc c4 44 5c 3d bd 94 24 3d
       -0.0055734576 -0.023442874 0.053776518 0.04018091
0001a0 fa 61 80 3d 45 91 66 bc 5d 0d 72 bd f4 c7 19 bc
       0.062686875 -0.014072721 -0.059094775 -0.009386051
0001b0 d2 f1 9d bd bd b2 92 3d 86 ee e6 bb 98 6f 68 3d
       -0.07712139 0.07162998 -0.007047477 0.05674705
0001c0 da b4 45 3c 0e 4a b1 3c ae 0b 51 3c 79 f0 4a 3d
       0.012067044 0.021641757 0.012759132 0.04954574
0001d0 26 14 44 bd 89 eb 61 3c 06 86 5e bb 70 c5 9e 3d
       -0.047870778 0.013789066 -0.0033954396 0.07752502
0001e0 28 a2 03 3e 3e bc 9f bc ef 52 ef bc 4d 7c c5 bc
       0.12854826 -0.01949894 -0.02921435 -0.024107123
0001f0 12 15 c8 bc 5e 8f 96 bd 53 2d dd 3d 49 83 65 09
       -0.02442411 -0.07351564 0.107996605 2.7626602e-33
000200 5e 81 90 3d eb fa c6 bb 81 bb 3e 3d 81 97 41 bd
       0.07055925 -0.006072392 0.046565536 -0.047263626
000210 c9 2d f7 3d 1a 0f 14 3c 7b 72 ce 3c fb 7e 34 bb
       0.1206928 0.009036804 0.025201073 -0.0027541507
000220 b6 88 91 3d 5f 0e 36 bd b6 37 a6 bd ca 7b 59 b8
       0.07106154 -0.0444473 -0.08116095 -5.185212e-05
000230 f8 b6 8b 3c f2 69 d7 bc 6d 39 c0 bd cb fa 38 bd
       0.01705502 -0.026295636 -0.09385953 -0.04516105
000240 6c 99 87 3d 6d 7a 0f 3d 92 b9 96 3d d5 70 95 3c
       0.0662106 0.035028864 0.073596135 0.018242279
000250 47 24 03 3d a9 49 91 bd d6 5d e1 bd 84 eb f5 bb
       0.03201702 -0.07094128 -0.11004226 -0.0075048823
000260 76 84 d0 3c 93 65 e8 bc 84 60 01 3d ea b0 e3 bb
       0.025453787 -0.028368747 0.031586185 -0.00694858
000270 c2 97 9f bd e7 c0 42 bc fa 33 30 3d 24 d7 68 3d
       -0.077926174 -0.011886812 0.04301832 0.0568458
000280 1b a4 0f bc ff 2d 0f 3d 89 bf 24 3d c5 7a c7 3b
       -0.008767153 0.034955975 0.040221725 0.0060876333
000290 e9 ae 90 3b 24 cc 13 3d 70 1d 7a bd 03 3a e0 bc
       0.004415382 0.036083356 -0.06106323 -0.027371412
0002a0 07 ef 6e 3d 6b 27 6a 3b d8 ef ea 3a f3 39 85 bd
       0.058333423 0.0035729061 0.0017924262 -0.065051936
0002b0 f3 f9 53 bd 4d 6f d9 bc 75 f8 5d 3d e8 45 9d bd
       -0.051752042 -0.02654233 0.054192025 -0.07679349
0002c0 53 9e a7 3d 5b ad 38 3d 84 c1 8c bb 5e 05 ae 3a
       0.08184495 0.0450872 -0.00429553 0.0013276746
0002d0 f2 11 96 3d 25 eb e5 bd a5 fa 35 3d 35 78 43 bd
       0.073276415 -0.11226491 0.044428486 -0.04772206
0002e0 28 98 be 3d 35 f2 c4 3b b4 6d ac 3a 0e 74 29 bd
       0.09306365 0.0060103186 0.0013155253 -0.041370444
0002f0 d1 8d 1f bb 4c 9d 9b 3c 4a f9 43 3d d4 99 f4 bc
       -0.0024346004 0.018995903 0.047845162 -0.029858507
000300 1b ae 8a 3d 40 65 ce bb 51 f6 03 bd 5f 83 2c 3d
       0.06771489 -0.006298691 -0.032217328 0.042117473
000310 8b d8 27 3d 08 fd 4b 3d ef 4c 10 bb ff d5 be 3d
       0.040977996 0.049801856 -0.0022018512 0.0931816
000320 91 21 89 3c 64 fe f5 3c 78 1f eb bb 0f f1 c3 bb
       0.016739639 0.03002853 -0.007175382 -0.005979664
000330 5f 86 c4 3d fe ce 68 bc 1b 7c a1 bd aa 67 08 3d
       0.09595942 -0.014209507 -0.07884999 0.033301987
000340 6b 58 4e 3b fa 67 ac bd 94 6d 0a bd 55 6c 1d 3d
       0.0031485807 -0.084182695 -0.033795908 0.03843339
000350 cb 19 0a bc f5 4f 8a 3d 84 71 2a bd e8 54 42 3d
       -0.008429001 0.06753532 -0.041612163 0.047444254
000360 a2 79 3c 3c 7a 66 35 bc 95 e2 41 bd 78 53 40 3c
       0.011503609 -0.011071796 -0.047335226 0.0117386505
000370 cb 76 48 bd 84 ae 84 3c 23 54 ae bd 04 a4 49 89
       -0.048941415 0.016196497 -0.085121416 -2.4271615e-33
000380 95 67 83 3c 73 dc 52 bc 7e 22 2f bc 12 7f 3c 3d
       0.016040603 -0.012869942 -0.010689376 0.04601962
000390 5f a9 5f 3d fd 60 1f bd 46 72 a8 3d dd 50 98 3c
       0.054604884 -0.038910855 0.08224921 0.018593246
0003a0 9c 49 09 3d 50 1a 24 3e d5 f0 ff 3c bb 10 a2 bd
       0.033517465 0.16025662 0.031242767 -0.07913347
0003b0 3d 2f 20 bd 37 81 62 bd 94 42 b4 3c 30 4c dc 3c
       -0.03910755 -0.05529901 0.022004403 0.026891798
0003c0 43 c4 52 bb fa 71 98 bd 59 a6 8e 3d 93 0b 9b bd
       -0.0032160438 -0.07443614 0.06965322 -0.07570567
0003d0 6a 60 54 bd 9f 2d 12 3d c8 78 79 bd 79 55 82 3b
       -0.05184976 0.03568804 -0.0609062 0.0039774743
0003e0 27 ad 94 3d 00 7f 3f bd 21 bb 4f 3d bf 2a fc 3b
       0.07259589 -0.046751976 0.05071557 0.0076955254
0003f0 fe f0 8c bd 1a cc 25 bd 3c 03 5f bd fc f8 7c bd
       -0.06881903 -0.04047785 -0.054446444 -0.061760888
