data/embeddings_cache/5279095a-71c5-48a9-b021-5c25dcb01bfd.npy (npy, 1664 bytes, 1 tensors)

array f4 [384]
-0.07754061 0.109731734 -0.015574579 0.047636684 -0.016352978 -0.018789608 -0.059552845 0.009254678
0.007881344 -0.019946184 -0.10289874 -0.0330317 -0.05080859 0.021391917 0.06274767 0.021543654
-0.070311695 -0.07701985 0.030890124 -0.11646528 0.07008683 -0.02452057 0.030568501 0.022622239
-0.010857172 0.008623238 -0.00081084395 0.034603655 0.040826116 0.0709713 -0.004045291 -0.046142828
-0.027435895 0.031958118 0.022926016 0.07797324 0.06052853 -0.028873427 0.031162445 0.008563377
0.14422634 0.012643915 -0.0683496 -0.09413253 0.017544169 -0.07750107 -0.025318123 -0.023114732
-0.04125523 0.07848468 -0.021375453 -0.09016991 0.026426395 0.07204628 0.006121747 0.11794548
0.010318594 0.012356431 0.06557934 -0.09520688 0.04576307 -0.086093955 -0.004053532 -0.03420309
0.023810007 0.008454364 -0.08526178 -0.0054817447 0.045355868 0.010328587 0.0457738 -0.045334958
0.010757178 -0.04363005 0.0018715038 -0.022536049 0.0007158594 0.0015887638 -0.037461903 -0.013349218
-0.11189523 -0.110728316 -0.026542582 0.08173384 -0.040279824 0.02982764 -0.010933898 0.02490717
0.024227003 -0.042073008 -0.06415438 -0.02162493 -0.035405383 -0.03741794 -0.026965845 0.030118823
-0.022116493 0.030727886 0.026016034 0.026772417 -0.012726015 -0.028820507 0.051736653 0.028055565
0.06766431 -0.020636907 -0.06391022 -0.011640702 -0.064872555 0.059976947 0.0058208085 0.06405834
0.0076206336 0.020843096 0.018207714 0.058841616 -0.04383829 0.018484706 -0.0040359674 0.08049215
0.13453141 -0.008542249 -0.027539328 -0.028481381 -0.041138142 -0.07601999 0.10905901 2.9040283e-33
0.072091065 -0.015117036 0.05270444 -0.036212496 0.120409995 0.0064766263 0.01554292 -0.006317436
0.06757466 -0.04349528 -0.081162974 -0.012072103 0.017724201 -0.012358221 -0.08413097 -0.055365536
0.07128927 0.0335561 0.07594005 0.023506474 0.032360736 -0.05989007 -0.115666136 -0.00077016134
0.031748135 -0.028519204 0.042307716 -0.0023324294 -0.07701711 -0.0022266917 0.046345446 0.048634954
-0.0027588524 0.048460174 0.03568496 0.007940708 -0.0028512303 0.036156867 -0.06248715 -0.040604252
0.063456215 -0.0029073562 -0.0064769355 -0.059041146 -0.047460157 -0.032296766 0.063193016 -0.07809475
0.08091767 0.038884312 -0.011457488 0.0033800183 0.07929207 -0.105630845 0.051149566 -0.0413894
0.09517474 0.014558919 0.003780036 -0.036024738 0.00216872 0.0238141 0.047781333 -0.023651896
0.06365499 0.0027185588 -0.03358167 0.03530347 0.036242843 0.05484485 0.0006044563 0.09260031
0.034668904 0.025925329 -0.0018522419 -0.0062062307 0.092055954 -0.02046998 -0.075373225 0.032416202
0.00095214206 -0.08823437 -0.03291043 0.03311806 -0.011542996 0.06145969 -0.04456562 0.040720124
0.009950335 0.0052388865 -0.058472384 0.015755784 -0.05994709 0.0150652435 -0.07917396 -2.6077936e-33
0.017890278 -0.0063807033 -0.019061835 0.04089201 0.04410749 -0.038474604 0.08280894 0.00848947
0.03398135 0.1611998 0.03105019 -0.08417241 -0.03361014 -0.05383132 0.02403392 0.02257035
-0.001627789 -0.0730418 0.06448879 -0.076255985 -0.056194536 0.04232917 -0.060237832 -0.0038547425
0.06973806 -0.041379996 0.054422244 0.010040125 -0.06616887 -0.038733315 -0.057457656 -0.05794816
00000000: 9dcd 9ebd 08bb e03d 852c 7fbc af1e 433d
00000010: aef6 85bc aaec 99bc afed 73bd efa0 173c
00000020: c120 013c 2e66 a3bc 93bc d2bd 3f4c 07bd
00000030: ab1c 50bd 1a3e af3c da81 803d 517c b03c
00000040: 94ff 8fbd 95bc 9dbd 490d fd3c 5985 eebd
00000050: af89 8f3d 5ddf c8bc cb6a fa3c 4652 b93c
00000060: 48e2 31bc 7b48 0d3c d18e 54ba 90bc 0d3d
00000070: 4939 273d 6759 913d 5c8e 84bb 4300 3dbd
00000080: 3ec1 e0bc 84e6 023d 57cf bb3c 6fb0 9f3d
00000090: c4ec 773d f787 ecbc 6248 ff3c 684d 0c3c
000000a0: 12b0 133e 6c28 4f3c e0fa 8bbd 8ec8 c0bd
000000b0: cab8 8f3c e2b8 9ebd f467 cfbc 1b5b bdbc
000000c0: 3efb 28bd 93bc a03d 931b afbc 00ab b8bd
000000d0: 2b7c d83c 008d 933d f098 c83b 668d f13d
000000e0: 520f 293c a172 4a3c 764e 863d d3fb c2bd
000000f0: 0f72 3b3d 0752 b0bd 7ed3 84bb 8a18 0cbd
00000100: 340d c33c 2c84 0a3c ba9d aebd 35a0 b3bb
00000110: 13c7 393d 3c39 293c 4f7d 3b3d 26b1 39bd
00000120: e03e 303c 6cb5 32bd 3f4d f53a 859d b8bc
00000130: 83a8 3b3a 113e d03a a771 19bd aeb6 5abc
00000140: 5429 e5bd 87c5 e2bd d46f d9bc 1264 a73d
00000150: 75fc 24bd 1859 f43c 1824 33bc 1f0a cc3c
00000160: b577 c63c bf54 2cbd 5f63 83bd c426 b1bc
00000170: 3c05 11bd 8e43 19bd 7ae7 dcbc c0bb f63c
00000180: a62d b5bc 0cb9 fb3c 941f d53c d451 db3c
00000190: c780 50bc fc18 ecbc d0e9 533d c9d4 e53c
000001a0: 9693 8a3d bb0e a9bc 5de3 82bd a5b8 3ebc
000001b0: e7db 84bd 63aa 753d 7bbc be3b 0531 833d
000001c0: 82b6 f93b 24bf aa3c 5828 953c e803 713d
000001d0: c78f 33bd 3d6d 973c 2640 84bb 11d9 a43d
000001e0: 9ac2 093e caf4 0bbc 289a e1bc c951 e9bc
000001f0: 7880 28bd 5eb0 9bbd 555a df3d da41 7109
00000200: 7ba4 933d 72ad 77bc 9ce0 573d 8e53 14bd
00000210: 8499 f63d e139 d43b bba7 7e3c 7f02 cfbb
00000220: 9564 8a3d 1b28 32bd c638 a6bd 12ca 45bc
00000230: 5832 913c 237a 4abc dc4c acbd f9c6 62bd
00000240: 1c00 923d 1f72 093d 7586 9b3d a690 c03c
00000250: b18c 043d 4a4f 75bd 5ee2 ecbd a7e4 49ba
00000260: 550a 023d 1ba1 e9bc db4a 2d3d acdb 18bb
00000270: 26bb 9dbd b0ed 11bb b9d4 3d3d 7235 473d
00000280: ddcd 34bb 2d7e 463d 652a 123d be19 023c
00000290: b5db 3abb 3919 143d 87f2 7fbd a550 26bd
000002a0: 55f5 813d 5889 3ebb 793c d4bb 21d5 71bd
000002b0: 9565 42bd 9d49 04bd 576b 813d 24f0 9fbd
000002c0: 2ab8 a53d 2845 1f3d 30b8 3bbc 4c83 5d3b
000002d0: e163 a23d fc54 d8bd 3582 513d ee87 29bd
000002e0: f9ea c23d 8888 6e3c 7bba 773b ad8e 13bd
000002f0: 1521 0e3b ca15 c33c 5cb6 433d 9fc1 c1bc
00000300: 8c5d 823d d929 323b ef8c 09bd 5f9a 103d
00000310: 6073 143d fea4 603d 6074 1e3a 3ba5 bd3d
00000320: fb00 0e3d 5b61 d43c edc6 f2ba a35d cbbb
00000330: d587 bc3d a9b0 a7bc 475d 9abd dac6 043d
00000340: 2c99 793a 39b4 b4bd 16cd 06bd cea6 073d
00000350: d61e 3dbc 28bd 7b3d 718a 36bd 25ca 263d
00000360: bb06 233c f7aa ab3b bd80 6fbd 4612 813c
00000370: 148b 75bd 36d4 763c f525 a2bd a3a5 5889
00000380: a28e 923c 3815 d1bb 9127 9cbc 617e 273d
00000390: 0eaa 343d 8c97 1dbd bc97 a93d 6b17 0b3c
000003a0: 0730 0b3d 8f11 253e f85c fe3c 9662 acbd
000003b0: c9aa 09bd 3b7e 5cbd c9e2 c43c 74e5 b83c
000003c0: 895b d5ba f096 95bd b312 843d 192c 9cbd
000003d0: 3e2c 66bd 5a61 2d3d f2bb 76bd d99f 7cbb
000003e0: d4d2 8e3d 127e 29bd dce9 5e3d 567f 243c
000003f0: 8b83 87bd d3a6 1ebd b858 6bbd 0d5b 6dbd
