data/embeddings_cache/56f7f531-a9b3-43b0-b367-25842ec7d450.npy (npy, 1664 bytes, 1 tensors)

array f4 [384]
-0.0157534 0.066890046 -0.023880564 0.013113588 0.034225043 -0.01770463 -0.011188546 0.069329165
0.029097997 0.0031762337 -0.020420218 -0.031151481 -0.06294375 0.0070880367 -0.00018392336 -0.017623177
-0.055101715 -0.08939744 0.026371684 0.0058793994 0.092692986 -0.05394494 0.059732433 0.006984526
0.009175514 -0.050865665 -0.0009046358 0.017180117 -0.055419553 0.0061794207 0.1406721 -0.01948742
0.012958112 0.024902117 0.0324004 0.0906988 0.010312248 -0.060202155 -0.058493692 -0.078307286
0.065456994 -0.04290439 -0.026546685 -0.024457535 -0.006824332 -0.079611644 -0.07274045 -0.016028086
0.060618695 0.03606424 -0.048177294 -0.07410592 0.0438612 -0.086099215 -0.05035176 0.09312258
-0.012127391 0.044018768 -0.01746565 -0.10461885 0.07314326 -0.13548218 -0.00061236747 -0.012219162
0.01065203 0.085870706 -0.037821725 -0.021123528 -0.05869687 0.008806775 0.01740207 -0.028229028
-0.06524146 -0.0145544205 0.079475224 0.011010827 -0.026879553 0.036770996 0.05591559 -0.0036030165
-0.051127974 -0.07333178 -0.028055131 0.07480396 0.011516095 0.08387362 0.022062765 0.0461077
0.020701248 0.00072048174 -0.014271516 -0.016884087 -0.038651556 -0.008022336 0.0044493107 0.057731476
-0.044216778 0.07188622 0.020591961 0.012570957 -0.022247415 0.07661157 -0.00015033828 0.011856937
-0.026507227 0.011025625 0.018195076 -0.07375083 0.076780386 0.035008747 0.02146526 -0.08780335
-0.011487631 0.035187397 -0.025186872 0.033232942 -0.08704418 0.13087183 0.012962847 0.05971841
0.09751781 -0.026881313 -0.041294247 -0.0096787885 -0.0042379936 -0.029425306 0.042516295 4.3755338e-33
0.06397301 -0.04820783 0.0070148855 0.061735474 0.03465902 -0.01763628 0.06352007 0.03537516
-0.062065627 -0.014670378 -0.081507824 -0.018359067 -0.0073774518 -0.019677266 -0.07881702 -0.035656642
-0.029055871 0.010527821 0.026325779 0.02715345 0.03644492 -0.018377068 -0.016083248 -0.066542916
-0.028377553 0.00015618688 -0.0028853684 0.0035494955 -0.018965673 0.009904889 -0.027183356 -0.034468513
-0.044526137 0.08716148 0.007810092 0.030515723 -0.016232602 0.051269 -0.08806435 -0.027901072
0.023267774 -0.053762242 0.014393424 -0.048112042 -0.07295563 -0.046008244 0.038762707 0.028064959
0.14852606 0.04664024 -0.10382941 -0.018541256 -0.024999104 -0.08858568 0.029076826 -0.017963497
-0.011376792 -0.0002208153 0.01765658 -0.08846493 0.025734536 0.07094016 0.021085003 -0.004366951
0.0060398835 0.025065754 0.04879505 -0.008106336 0.055297222 -0.0041507254 0.010943082 -0.014250719
0.0052304324 0.032975443 -0.048963416 -0.014079728 0.05349747 0.061215572 -0.031217612 0.03695869
0.019134924 -0.11351576 -0.09593855 0.046385437 0.02163013 0.09881788 0.01853702 0.008252319
0.026556207 -0.04343965 0.013505926 -0.02126398 -0.031063572 -0.07877973 -0.0572001 -4.6376713e-33
0.04204459 -0.046741936 -0.03260147 0.025770672 0.0993304 0.07865771 0.09104703 0.041371938
0.0040633334 0.074924536 0.034634642 -0.057816226 0.05336344 -0.1277326 0.015453489 0.026169375
0.03261756 -0.04561658 0.0038688916 -0.0689571 -0.06044699 0.027719611 -0.03494119 0.07367491
0.0057268427 -0.044816732 0.07793382 0.032251224 -0.063335195 -0.020254597 -0.016075246 0.07650305
00000000: 460d 81bc a6fd 883d 2ca1 c3bc 60da 563c
00000010: 8f2f 0c3d 4d09 91bc 2a50 37bc 73fc 8d3d
00000020: ec5e ee3c 5c28 503b 4d48 a7bc 6431 ffbc
00000030: a7e8 80bd c342 e83b 8ddb 40b9 7b5e 90bc
00000040: 56b2 61bd 0116 b7bd 6e09 d83c faa7 c03b
00000050: d2d5 bd3d 5ff5 5cbd ffa9 743d 73de e43b
00000060: e554 163c 8458 50bd 1525 6dba 51bd 8c3c
00000070: 9dff 62bd bd7c ca3b 590c 103e 15a4 9fbc
00000080: 434e 543c 86ff cb3c 48b6 043d 4bc0 b93d
00000090: b4f4 283c 8996 76bd 1597 6fbd 925f a0bd
000000a0: 510e 863d 83bc 2fbd 6f78 d9bc 2b5b c8bc
000000b0: a59e dfbb 6e0b a3bd f2f8 94bd 554d 83bc
000000c0: 4f4b 783d 19b8 133d 8e55 45bd d8c4 97bd
000000d0: cda7 333d c954 b0bd a63d 4ebd 0db7 be3d
000000e0: f7b1 46bc 064d 343d 1f14 8fbc 6842 d6bd
000000f0: 22cc 953d d7bb 0abe 4987 20ba e132 48bc
00000100: da85 2e3c fbdc af3d f4ea 1abd 400b adbc
00000110: 216c 70bd 4b4a 103c c98e 8e3c 9040 e7bc
00000120: 519d 85bd aa75 6ebc e8c3 a23d c166 343c
00000130: 8232 dcbc 2f9d 163d bf07 653d 9620 6cbb
00000140: 916b 51bd f92e 96bd e0d3 e5bc d232 993d
00000150: 01ae 3c3c efc5 ab3d f9bc b43c 6ddb 3c3d
00000160: aa95 a93c b6de 3c3a 14d3 69bc 7f50 8abc
00000170: 1851 1ebd 1e70 03bc 86cb 913b d777 6c3d
00000180: a71c 35bd 1539 933d 79b0 a83c 6af6 4d3c
00000190: 3640 b6bc 87e6 9c3d 20a4 1db9 9943 423c
000001a0: af25 d9bc d3a4 343c d70d 953c ad0a 97bd
000001b0: 093f 9d3d 5565 0f3d ead7 af3c 3ed2 b3bd
000001c0: 9e36 3cbc a920 103d b354 cebc 441f 083d
000001d0: 3844 b2bd 4403 063e 1f62 543c 4b9b 743d
000001e0: 6bb7 c73d 3336 dcbc 2824 29bd c893 1ebc
000001f0: dede 8abb 570d f1bc 9125 2e3d a8c0 b509
00000200: 4804 833d 9375 45bd 20dd e53b 56de 7c3d
00000210: 9ef6 0d3d f679 90bc cf16 823d 8be5 103d
00000220: 8738 7ebd 065c 70bc 93ed a6bd c165 96bc
00000230: 8dbe f1bb 3832 a1bc d16a a1bd b30c 12bd
00000240: 9406 eebc e27c 2c3c 29a9 d73c e970 de3c
00000250: 4547 153d 818b 96bc 04c1 83bc a747 88bd
00000260: 0b78 e8bc 19c6 2339 7318 3dbb a79e 683b
00000270: e65d 9bbc 1e48 223c a1af debc db2e 0dbd
00000280: 0a61 36bd b881 b23d cdeb ff3b 1cfc f93c
00000290: 3cfa 84bc 71ff 513d 155b b4bd ca90 e4bc
000002a0: 0f9c be3c cc35 5cbd 65d2 6b3c 2211 45bd
000002b0: c369 95bd 2473 3cbd a5c5 1e3d 7ce8 e53c
000002c0: 3717 183e d609 3f3d 84a4 d4bd d5e3 97bc
000002d0: ecca ccbc 696c b5bd 8632 ee3c 2f28 93bc
000002e0: b965 3abc a88a 67b9 88a4 903c 1a2d b5bd
000002f0: 3cd1 d23c 1349 913d 75ba ac3c a418 8fbb
00000300: 37ea c53b b256 cd3c 51dd 473d 70d0 04bc
00000310: 577f 623d cf02 88bb 9d4a 333c d97b 69bc
00000320: 0c64 ab3b 4211 073d dd8d 48bd a9ae 66bc
00000330: 2a20 5b3d 2ebd 7a3d 14bc ffbc ff61 173d
00000340: d8c0 9c3c f37a e8bd 6e7b c4bd a8fe 3d3d
00000350: ac31 b13c 0761 ca3d f3da 973c bc34 073c
00000360: 678c d93c c6ed 31bd f647 5d3c cc31 aebc
00000370: 0879 febc 4457 a1bd a74a 6abd 2ea4 c089
00000380: f336 2c3d 7974 3fbd 1e89 05bd 041d d33c
00000390: bd6d cb3d 4b17 a13d de76 ba3d 9f75 293d
000003a0: b625 853b 0972 993d 0edd 0d3d b5d0 6cbd
000003b0: 9f93 5a3d 56cc 02be a130 7d3c 2861 d63c
000003c0: fe99 053d 73d8 3abd 3b8d 7d3b 6139 8dbd
000003d0: 4397 77bd 3d14 e33c 7e1e 0fbd dfe2 963d
000003e0: 3da8 bb3b c091 37bd c49b 9f3d dc19 043d
000003f0: e2b5 81bd f8ec a5bc 3cb0 83bc a2ad 9c3d
