data/embeddings_cache/71d535c1-8686-412e-b2bf-f9475074fe8b.npy (npy, 1664 bytes, 1 tensors)

array f4 [384]
-0.060341284 0.0020900145 -0.0047074845 -0.015098949 0.021846315 -0.0044147302 0.020985462 0.073676124
-0.037474286 0.032210983 0.0158787 0.00811055 -0.024628285 0.03517839 -0.021260051 0.02582594
-0.06293887 -0.013436693 -0.017554961 0.031277888 0.0759722 -0.037759498 0.08742758 -0.0036391472
-0.027940208 -0.050476156 -0.03654537 -0.03618671 -0.10442115 -0.028444774 0.08506868 0.024469808
-0.034570973 -0.037071925 0.05287337 0.077910416 -0.031018646 -0.04895611 -0.052426912 -0.103144795
0.009832122 -0.009124839 -0.037059356 -0.03578061 -0.019129768 -0.051688936 -0.03469924 -0.025288245
0.095543206 0.010653679 -0.05255752 -0.010206729 0.04923213 -0.08531194 -0.05792115 0.08418208
0.014492335 0.050626304 -0.021556329 -0.023162434 0.07120406 -0.083763056 -0.016735319 -0.006930869
0.035203047 0.08226417 -0.053778686 -0.059879318 -0.086101614 0.042155005 -0.06136876 -0.05051877
-0.061942127 0.030033503 0.08273261 -0.040606175 -0.043028872 -0.001595309 0.00881569 -0.018053686
-0.039551042 -0.062241185 -0.018939484 0.056924544 0.12850116 0.08590803 0.01788899 0.015714614
0.04350655 -0.008295445 0.021934276 -0.054126047 0.0011252456 0.0073546073 0.051172398 0.022452954
-0.0487559 0.12859283 -0.005115404 0.028387286 -0.0023321272 0.054203946 -0.001171898 -0.00654856
-0.0081263175 -0.015210266 0.08917142 -0.035385646 0.059606712 0.012895856 0.025317434 -0.09177386
-0.01959778 0.06157577 -0.034424853 0.020082263 -0.027633894 0.12982342 0.010378819 0.05709072
0.07483043 0.0012147237 -0.032016683 0.004492649 0.03894365 -0.031535085 0.037507083 4.708392e-33
0.07124817 -0.030417554 -0.041823175 0.059196416 0.03499046 -0.020609232 0.056250826 0.025465446
-0.05698744 0.033740662 -0.036611255 -0.021311546 0.009417362 -0.083351344 -0.081306666 -0.015653994
-0.058459666 -0.0041410374 -0.030491704 0.02768641 0.068623304 0.009649003 -0.005592638 -0.051269222
-0.02658879 -0.027268399 0.0048018303 0.03808249 -0.001603435 0.0044118743 -0.024482245 -0.07353486
-0.03479702 0.07580256 -0.050482456 -0.008999892 0.043167163 -0.0038751743 -0.059704185 -0.05094682
-0.07545263 -0.058433704 0.0544423 -0.038494255 -0.041911267 -0.10112938 0.028473742 0.09513563
0.10341223 0.023625962 -0.08528093 0.0057986635 -0.05577259 -0.07903405 -0.020537997 0.0044063227
-0.05174233 0.021088924 -0.015730996 -0.089190416 0.045970537 0.0030029973 -0.008474895 0.0036333425
-0.0076496517 0.004212607 0.063512 -0.01756134 0.05366261 -0.04999634 -0.04556863 -0.06963023
0.022456443 0.02740147 -0.030296765 0.008369233 0.005460097 0.033910748 -0.031681895 0.042522628
0.0043017333 -0.0965542 -0.11136615 0.06119695 0.03592294 0.04440995 0.0042961463 -0.03943278
-0.021316571 -0.05565054 0.077672206 -0.0069101276 -0.0127235735 -0.08579709 -0.025780993 -6.121285e-33
0.06596965 -0.043752182 0.01151791 0.02149886 0.08253545 0.05614729 0.066683576 -0.0096566845
0.009284127 -0.009407482 0.01868345 0.0026514945 0.065377116 -0.09401046 -4.7225534e-05 0.07177448
-0.0015213819 0.037500955 -0.031195909 -0.042234086 -0.014776411 0.10031718 -0.035554145 0.08226655
-0.03319677 -0.019052627 0.06723962 0.070477426 -0.029949805 0.024261145 0.065876685 0.07840477
00000000: 6c28 77bd a0f8 083b 3e41 9abb 9561 77bc
00000010: 0bf7 b23c 71a9 90bb b4e9 ab3c 82e3 963d
00000020: a37e 19bd aaef 033d 0c14 823c 1de2 043c
00000030: 42c1 c9bc 3717 103d 8f29 aebc ec90 d33c
00000040: 18e6 80bd 9325 5cbc 6ccf 8fbc 3e1d 003d
00000050: 5097 9b3d b4a9 1abd 3b0d b33d c27e 6ebb
00000060: dde2 e4bc 16c0 4ebd 99b0 15bd 8438 14bd
00000070: c2da d5bd 0405 e9bc 7d38 ae3d e874 c83c
00000080: 4b9a 0dbd bbd8 17bd bf91 583d 7f8f 9f3d
00000090: d11a febc 3486 48bd 9abd 56bd 943d d3bd
000000a0: e916 213c 5980 15bc 8dcb 17bd b08e 12bd
000000b0: 08b6 9cbc c7b7 53bd ca20 0ebd 4b29 cfbc
000000c0: 28ac c33d c58c 2e3c 8e46 57bd 203a 27bc
000000d0: a1a7 493d 07b8 aebd ba3e 6dbd a867 ac3d
000000e0: 4271 6d3c 875d 4f3d e696 b0bc 25bf bdbc
000000f0: 6fd3 913d f78b abbd 8218 89bc 581c e3bb
00000100: 1231 103d 1e7a a83d 0a47 5cbd 0444 75bd
00000110: 0b56 b0bd baaa 2c3d cf5d 7bbd c5ec 4ebd
00000120: 07b7 7dbd d208 f63c b76f a93d a952 26bd
00000130: 0b3f 30bd b019 d1ba af6f 103c 53e5 93bc
00000140: 4600 22bd 9df0 7ebd fa26 9bbc b629 693d
00000150: cf95 033e 8df0 af3d ee8b 923c efbb 803c
00000160: ed33 323d 9ee9 07bc 83af b33c 46b3 5dbd
00000170: fa7c 933a ebfe f03b 269a 513d 42ef b73c
00000180: 44b4 47bd d7ad 033e 1e9f a7bb 748c e83c
00000190: 9ad6 18bb f504 5e3d 5f9a 99ba 4e95 d6bb
000001a0: 3f24 05bc 7b34 79bc 819f b63d 8af0 10bd
000001b0: 2b26 743d 2449 533c 8266 cf3c eff3 bbbd
000001c0: 868b a0bc e036 7c3d 1301 0dbd 8f83 a43c
000001d0: 7a60 e2bc 6ef0 043e ec0b 2a3c f5d7 693d
000001e0: b240 993d 5d37 9f3a ed23 03bd 1237 933b
000001f0: 6083 1f3d ef2a 01bd 07a1 193d 3694 c309
00000200: 90ea 913d 3c2e f9bc c74e 2bbd f177 723d
00000210: 2852 0f3d b1d4 a8bc 4467 663d e99c d03c
00000220: a96b 69bd a633 0a3d aff5 15bd 8d95 aebc
00000230: 474b 1a3c 1cb4 aabd 1c84 a6bd ce3c 80bc
00000240: 6773 6fbd 8ab1 87bb bdc9 f9bc 9cce e23c
00000250: 608a 8c3d da16 1e3c 7342 b7bb adff 51bd
00000260: bcd0 d9bc fa61 dfbc ac58 9d3b 63fc 1b3d
00000270: 5a2a d2ba 7c91 903b fd8e c8bc 7299 96bd
00000280: 5287 0ebd 5f3e 9b3d b1c6 4ebd 4874 13bc
00000290: 0dd0 303d a3f6 7dbb 608c 74bd 9dad 50bd
000002a0: e986 9abd 2e58 6fbd e4fe 5e3d 27ac 1dbd
000002b0: 26ab 2bbd ec1c cfbd c441 e93c 78d6 c23d
000002c0: cbc9 d33d 3c8b c13c c5a7 aebd b702 be3b
000002d0: cd71 64bd 9bdc a1bd 4d3f a8bc ea62 903b
000002e0: c4ef 53bd aec2 ac3c 4ade 80bc 77a9 b6bd
000002f0: 9a4b 3c3d efcd 443b 49da 0abc 5f1d 6e3b
00000300: eea9 fabb e909 8a3b 9412 823d cddc 8fbc
00000310: 53cd 5b3d f6c8 4cbd 2ca6 3abd 4b9a 8ebd
00000320: 93f6 b73c 0c79 e03c ec30 f8bc 1c1f 093c
00000330: 9dea b23b ffe5 0a3d e0c4 01bd 352c 2e3d
00000340: 8ef5 8c3b 35be c5bd f013 e4bd a7a9 7a3d
00000350: ef23 133d 35e7 353d b0c6 8c3b 4484 21bd
00000360: 17a0 aebc d2f1 63bd 9b12 9f3d 5a6e e2bb
00000370: 8976 50bc 62b6 afbd a932 d3bc ab44 fe89
00000380: 191b 873d 7d35 33bd 9eb5 3c3c 611e b03c
00000390: 5908 a93d b3fa 653d 6691 883d 1237 1ebc
000003a0: 731c 183c d721 1abc 090e 993c b2c4 2d3b
000003b0: 70e4 853d 8e88 c0bd 0814 46b8 80fe 923d
000003c0: 1b69 c7ba 9a9a 193d 908e ffbc a6fd 2cbd
000003d0: c218 72bc 1873 cd3d 39a1 11bd 5d7b a83d
000003e0: 56f9 07bd 4114 9cbc edb4 893d 7856 903d
000003f0: 4b59 f5bc 4fbf c63c 5bea 863d ae92 a03d
