data/embeddings_cache/71efb289-7296-4b74-b940-14229435df3a.npy (npy, 1664 bytes, 1 tensors)

array f4 [384]
0	0xbc8dc3a3	-0.0173052
1	0x3ce76460	0.028246105
2	0xbbea8364	-0.0071567763
3	0x3c334a44	0.010942999
4	0x3d67c386	0.05658295
5	0xbc4c2739	-0.012460523
6	0xba86db22	-0.0010288695
7	0x3d1866bb	0.037207346
8	0xbca5f5d7	-0.020258827
9	0x3c4c8e8f	0.0124851605
10	0x3b7a523a	0.0038195984
11	0xbcb797cd	-0.022411251
12	0xbd5dd7ec	-0.054160997
13	0x3d267eb3	0.040648174
14	0xbbfd572d	-0.0077313394
15	0x3c4058c9	0.011739918
16	0xbcb3e89b	-0.0219615
17	0xbd654b35	-0.055979926
18	0x3d5d98c8	0.05410078
19	0x3d05b82c	0.032646343
20	0x3d8e70ef	0.06955134
21	0xbd4c8bcf	-0.04993802
22	0x3daed7e3	0.08537271
23	0x3cea1d82	0.028578524
24	0xbd53b6d5	-0.051688034
25	0xbd03e968	-0.032205015
26	0xbd12b2f0	-0.03581518
27	0xbd102afc	-0.035197243
28	0xbd82da31	-0.06389273
29	0xbb048059	-0.0020218103
30	0x3e0319dc	0.12802833
31	0xbc405783	-0.011739614
32	0xbbb4ef86	-0.0055217175
33	0xbbbc6f5d	-0.00575058
34	0x3cf2533d	0.029580707
35	0x3da0fa10	0.07860196
36	0xbc92348a	-0.017847318
37	0xbd87d75d	-0.06632874
38	0xbd926767	-0.07148629
39	0xbdb32566	-0.087473676
40	0x3d3abc70	0.045589864
41	0xbd0932f1	-0.033495847
42	0xbc303e46	-0.010757035
43	0xbd62f9db	-0.055414062
44	0x3c4f287d	0.0126439305
45	0xbdb817b6	-0.089888975
46	0xbd9f727b	-0.07785507
47	0xbd35db79	-0.04439876
48	0x3d97b85d	0.074082114
49	0x3cd43524	0.025904246
50	0xbd1f1ccf	-0.038845833
51	0xbd4c8566	-0.049931906
52	0x3d0737e7	0.033012297
53	0xbdcbbaa1	-0.09947706
54	0xbd18d4e4	-0.037312403
55	0x3ddc2e63	0.10751035
56	0x3cfa485e	0.030552085
57	0x3d2450e7	0.040116217
58	0xbbd56b10	-0.006513007
59	0xbd160e86	-0.036634944
60	0x3dd1e1a5	0.102481164
61	0xbe073259	-0.132028
62	0xbc8767c6	-0.016528975
63	0xbc9e055f	-0.01928967
64	0x3d0768da	0.03305898
65	0x3de13dbc	0.10998103
66	0xbd1befff	-0.038070675
67	0xbd9ae2eb	-0.075628124
68	0xbde07d9d	-0.10961459
69	0x3d130865	0.035896678
70	0xbcba75d1	-0.022761257
71	0xbd2005b3	-0.039067935
72	0xbd00afa5	-0.031417508
73	0xbce55a4f	-0.027997164
74	0x3da74ef3	0.08169355
75	0xbd5dc6e9	-0.054144774
76	0xbd877dfb	-0.06615826
77	0x3c2a2648	0.0103851035
78	0x3b265e7f	0.0025385914
79	0xbbc88b26	-0.0061201034
80	0xbd2a3dec	-0.04156296
81	0xbda4991c	-0.08037016
82	0xbcff6fe5	-0.031181285
83	0x3da67d7f	0.08129405
84	0x3d9b1d6e	0.07573973
85	0x3daa618e	0.08319388
86	0x3c47e643	0.012200895
87	0x3c804899	0.015659617
88	0x3cdfb8f4	0.027309872
89	0xbadeb33d	-0.0016990673
90	0xbc2215ec	-0.009892922
91	0xbd4a23fd	-0.049350727
92	0xbc1dcdcf	-0.009631588
93	0x3c8797bc	0.016551845
94	0xbba14541	-0.004921586
95	0x3d14b728	0.036307484
96	0xbcfb36fd	-0.030665869
97	0x3dbb645e	0.09150003
98	0x3c210d8e	0.009829892
99	0xbb2e2efe	-0.0026578302
100	0x3c8f2a8d	0.017476344
101	0x3d7cf800	0.06175995
102	0x3c0e6693	0.008691448
103	0xbae537db	-0.001748796
104	0xbc3a68ae	-0.011377497
105	0x3c7f972c	0.015600007
106	0x3d241683	0.04006053
107	0xbd9191a1	-0.07107855
108	0x3d7a041e	0.061039083
109	0xbb5dace1	-0.0033824968
110	0x3c94338e	0.01809099
111	0xbdcf84df	-0.10132765
112	0xbc62dbaa	-0.013846317
113	0x3d77ff1d	0.06054603
114	0xbc65817e	-0.014007924
115	0x3c6a651e	0.014306335
116	0xbd1b7db0	-0.03796166
117	0x3e2b7c31	0.16746594
118	0x3d3f5201	0.046709064
119	0x3d4954f2	0.049153276
120	0x3dbadf24	0.09124592
121	0x3c1cf271	0.009579287
122	0xbcf0899d	-0.029362494
123	0xbc395a42	-0.011313023
124	0x3d0c8b83	0.034312736
125	0xbcc8d2ef	-0.024514643
126	0x3cd642b6	0.026154857
127	0x08cc66f6	1.2302009e-33
128	0x3dc83430	0.09775579
129	0xbd5a9d9e	-0.05337297
130	0xbcdb1bc1	-0.026746633
131	0x3d049391	0.032367293
132	0x3d5ebb3f	0.05437779
133	0xbb876757	-0.004132192
134	0x3d71c9cb	0.059030335
135	0x3cdb7a3c	0.026791684
136	0xbd187dee	-0.03722947
137	0xbcd2811a	-0.025696326
138	0x393e2ae1	0.00018135786
139	0x3c216294	0.009850163
140	0xbba4b9a3	-0.0050270124
141	0xbd41e369	-0.047336016
142	0xbd7084e8	-0.0587205
143	0xbcefb55a	-0.02926128
144	0xbd78585a	-0.060631134
145	0x3cef4677	0.029208405
146	0x3c0703ca	0.0082406495
147	0x3c859746	0.016307484
148	0x3d6cb121	0.05778611
149	0xbc302cf4	-0.010752905
150	0xbc7e8fd6	-0.015537223
151	0xbced5b58	-0.02897422
152	0xbcb0fa71	-0.021603795
153	0xbd4aeb38	-0.04954073
154	0xbc87ebae	-0.016591873
155	0x3cc51b03	0.024060732
156	0xbd253401	-0.040332798
157	0x3bed1906	0.007235649
158	0xbd56bcb7	-0.052426066
159	0xbd5ac6be	-0.05341219
160	0xbd2a11e2	-0.04152096
161	0x3d9b16d3	0.07572713
162	0xbd266501	-0.04062367
163	0x3cf0caee	0.02939364
164	0xbbfea998	-0.007771682
165	0x3cc8294d	0.024433756
166	0xbd64b4d5	-0.055836517
167	0xbd73a724	-0.05948557
168	0xbd69003a	-0.05688498
169	0xbd77c41f	-0.06048977
170	0x3d08844a	0.033329286
171	0xbd436efc	-0.047713265
172	0xbd95af03	-0.073087715
173	0xbdaa9e45	-0.08330969
174	0x3c409146	0.011753386
175	0x3d8917b4	0.06693974
176	0x3e0bcf8d	0.13653393
177	0x3d14f436	0.03636571
178	0xbdcb2cb6	-0.09920637
179	0xbd1239f3	-0.035699796
180	0xbd0bdf36	-0.034148417
181	0xbdf14747	-0.11781173
182	0xbca4ef5f	-0.020133672
183	0xbc7301ce	-0.014831973
184	0xbcf344bd	-0.029695863
185	0x3d3d77e8	0.04625693
186	0x3b30c42c	0.0026972396
187	0xbdaacea4	-0.08340195
188	0x3d261ea3	0.04055656
189	0x3c0a53cd	0.008442831
190	0xbcaeb2d5	-0.021325508
191	0x3c79ad6d	0.015239102
192	0xbd0b95e8	-0.03407851
193	0x3d2bf9bf	0.041986223
194	0x3d311abd	0.04323839
195	0xbc4a10d3	-0.012333113
196	0x3d4fba71	0.050714914
197	0xbd4a75fc	-0.049428925
198	0xbd272bf6	-0.04081341
199	0xbd1072db	-0.035265785
200	0x3cba7364	0.0227601
201	0x3c99b121	0.01876122
202	0xbc9abdd2	-0.018889342
203	0xbc577e6b	-0.013152699
204	0xbd031cd7	-0.032009926
205	0xbb768cc1	-0.0037620517
206	0xbd060f09	-0.032729182
207	0x3d0aebd8	0.033916324
208	0x3c3d2754	0.011545021
209	0xbdc43d64	-0.09582022
210	0xbe00b1f4	-0.12567884
211	0x3d33d18f	0.043901023
212	0x3d431ab1	0.047632877
213	0x3dac6f94	0.08419719
214	0x3bc18e25	0.0059068375
215	0xbcafef9f	-0.021476565
216	0xbcc267ff	-0.02373123
217	0xbd216dfd	-0.039411534
218	0x3c1da130	0.00962095
219	0x3bcecaf5	0.0063108155
220	0x3c291612	0.010320203
221	0xbd4037af	-0.046928104
222	0xbca7dfa1	-0.020492377
223	0x8967ad14	-2.7886995e-33
224	0x3d5d627f	0.05404901
225	0xbd3bc748	-0.045844346
226	0xbc9490fe	-0.018135544
227	0x3d28d0bf	0.0412147
228	0x3d8d52a6	0.069005296
229	0x3da971b4	0.0827364
230	0x3de12e20	0.10995126
231	0xbb5ce8ed	-0.003370817
232	0xb98064d0	-0.00024489174
233	0x3d2ca04c	0.04214506
234	0x3ce6af81	0.028159859
235	0xbcc04800	-0.023471832
236	0x3d4b0657	0.049566593
237	0xbd8830e0	-0.06649947
238	0xbd002461	-0.031284694
239	0x3d7d531b	0.061846834
240	0x3bf88347	0.007584009
241	0x3d10055b	0.035161357
242	0xbc97cb3e	-0.01852953
243	0xbda68374	-0.081305414
244	0xbce0289b	-0.027363112
245	0x3da383f7	0.07984155
246	0xbceacec7	-0.028663052
247	0x3daa170e	0.083051786
248	0xbd25476a	-0.04035131
249	0xbd1e11c3	-0.038591158
250	0x3dbc4e49	0.09194619
251	0xbb515fd9	-0.0031947999
252	0xbcca20b9	-0.024673807
253	0xbc230d4c	-0.009951901
254	0x3d0937d8	0.033500522
255	0x3d96251f	0.07331299
