data/embeddings_cache/91caf7bc-b9d3-46b7-b331-4254be3ec95b.npy (npy, 1664 bytes, 1 tensors)

array f4 [384]
000000 9d bd ae bd f6 91 de 3d 51 cf 83 bc fd 2e 3c 3d
       -0.085322596 0.108676836 -0.016090067 0.04594325
000010 c8 c0 bb bc 98 db a2 bc 9a b6 69 bd e5 30 08 3c
       -0.022919074 -0.019880101 -0.057058908 0.008312439
000020 fb 0b 70 3c 59 94 18 bc b0 18 c5 bd 84 bb 01 bd
       0.014651294 -0.009312713 -0.096238494 -0.03167297
000030 fb d5 6d bd e3 97 e5 3c 8b 1f 65 3d 86 b6 5b 3c
       -0.058065396 0.028026527 0.055938285 0.013410216
000040 fe 17 98 bd f9 99 9b bd fd 01 aa 3c eb 78 ee bd
       -0.07426451 -0.07597727 0.020752901 -0.11644157
000050 18 2f a0 3d 43 99 a9 bc 4c 89 db 3c e9 e5 ed 3c
       0.078214824 -0.020702964 0.026798867 0.029040294
000060 e0 38 3c bc d3 bb 12 3c e9 0e 99 3b ab 81 fd 3c
       -0.011488169 0.008955914 0.004670967 0.03094562
000070 b2 c8 1f 3d a9 ec 8d 3d 19 e6 51 bc a4 5e 40 bd
       0.039009757 0.06929905 -0.012811207 -0.046965256
000080 7c cd 8b bc 06 ca 08 3d 8f 96 9e 3c 3f 08 b7 3d
       -0.017065756 0.03339579 0.019358901 0.0893712
000090 75 82 69 3d d4 b6 06 bd 81 2b 26 3d 21 9f 92 3c
       0.05700918 -0.032889202 0.040568832 0.017898144
0000a0 0e 03 0f 3e c5 bb 71 3c 4c 32 82 bd a1 ef cf bd
       0.13966009 0.01475424 -0.063572496 -0.101531275
0000b0 d4 85 3c 3c e0 19 b8 bd f3 89 08 bd 7e 2a 97 bc
       0.0115065165 -0.0898931 -0.033334684 -0.018452879
0000c0 40 10 19 bd 4c d4 b2 3d 25 f7 2f bc 77 dc aa bd
       -0.037369013 0.08731899 -0.010740076 -0.083428316
0000d0 ae 88 ac 3c 45 dc 96 3d 89 91 14 3b ca 5a e5 3d
       0.021061268 0.07366232 0.0022669754 0.11198957
0000e0 f3 f4 3a 3c c7 a0 f5 3b a6 0f 74 3d f9 fe b2 bd
       0.0114109395 0.007495973 0.059585236 -0.087400384
0000f0 31 51 1c 3d 0e d6 bf bd db 29 a6 3b 32 7b 0c bd
       0.038163368 -0.093669996 0.0050709075 -0.034297176
000100 49 29 cb 3c 5e d2 69 38 c3 48 b2 bd 98 5b bf bb
       0.02479996 5.574745e-05 -0.087052844 -0.0058397762
000110 5b 01 33 3d eb 86 2b 3c 32 4d 3c 3d 83 3a 31 bd
       0.043702465 0.010469179 0.045972057 -0.04326869
000120 28 d7 32 3c ae e8 1f bd 2d a8 66 bb 37 2e 83 bc
       0.010915555 -0.03904026 -0.0035195455 -0.016013248
000130 c4 ad 16 3b cf 62 a5 3a db 42 10 bd b2 42 75 bb
       0.0022991756 0.0012617948 -0.03522001 -0.0037423787
000140 9f 2a dc bd 56 0c d7 bd 43 d5 fc bc 71 e0 a6 3d
       -0.10750317 -0.105004 -0.03086341 0.081482776
000150 b0 36 01 bd dd 18 0c 3d f6 b3 d9 bb 50 91 df 3c
       -0.031546295 0.0342034 -0.0066437675 0.02729097
000160 02 44 10 3d a8 bb 3a bd da 1d 8a bd ea 1f 70 bc
       0.035221107 -0.04558912 -0.06743975 -0.014656046
000170 0a cd 18 bd 6d 5d 40 bd 07 cd d2 bc 71 7d 02 3d
       -0.037304915 -0.046964098 -0.02573253 0.03185791
000180 91 5e bb bc 67 07 ba 3c 14 e9 bc 3c 56 15 c7 3c
       -0.022872241 0.022708608 0.023060359 0.024302166
000190 c7 e7 b1 bb e8 f7 ad bc f8 b9 4b 3d 8c 4c 18 3d
       -0.0054292413 -0.021236375 0.0497379 0.037182376
0001a0 5b 82 7f 3d 4e d9 54 bc 62 02 74 bd 53 a4 f7 bb
       0.062380176 -0.012991263 -0.059572585 -0.007557431
0001b0 d2 d0 a4 bd 21 00 91 3d 19 da 1f bc 4b 19 5d 3d
       -0.08047642 0.07080103 -0.009756588 0.0539792
0001c0 7c 18 50 3c 3a 96 9e 3c 09 2c 61 3c 62 0b 53 3d
       0.01270115 0.019358743 0.013743409 0.051524527
0001d0 fe e3 4b bd b9 3a 5b 3c 02 90 b0 bb a6 aa a2 3d
       -0.049777977 0.0133807 -0.005388261 0.07942705
0001e0 a0 10 06 3e 7b 80 7e bc 18 8c d2 bc b4 20 df bc
       0.1309228 -0.015533562 -0.025701568 -0.027237274
0001f0 9f 69 d8 bc 82 45 8d bd bf 8a d9 3d 81 65 81 09
       -0.026417552 -0.06898023 0.10622167 3.1151074e-33
000200 ab dc 95 3d 09 8b be bb c4 3b 45 3d a2 37 3b bd
       0.0731748 -0.005814914 0.0481527 -0.045707352
000210 d4 43 fb 3d e2 c2 12 3c 32 e3 c6 3c 47 a7 15 3a
       0.122687966 0.0089575965 0.024278257 0.0005708825
000220 2e c6 8e 3d 8b 4e 1f bd 49 c5 a4 bd d0 e1 8f 3b
       0.069713935 -0.038893264 -0.08045442 0.0043909326
000230 2a a4 98 3c c8 b1 c6 bc 5d 0f b5 bd e4 7b 30 bd
       0.018632967 -0.024254695 -0.08840821 -0.0430869
000240 4d 17 91 3d 16 25 0c 3d b8 72 8f 3d 1a b7 73 3c
       0.070845224 0.034215055 0.07004303 0.014875198
000250 f4 7c ff 3c 22 fe 91 bd 52 12 de bd b0 da e9 bb
       0.031187512 -0.0712855 -0.10843338 -0.0071366653
000260 61 10 dc 3c 34 df eb bc 2b e2 05 3d c8 13 b8 bb
       0.026863279 -0.028792955 0.032686394 -0.0056175925
000270 d9 92 a0 bd c7 9d 35 bc a6 01 2d 3d 0d f2 58 3d
       -0.07840509 -0.01108498 0.0422379 0.052965213
000280 c0 24 3f bc 29 3d 2b 3d 26 19 25 3d bb 85 16 3c
       -0.011666477 0.041806374 0.040307187 0.009187157
000290 94 6b 5d 3b 77 f6 e4 3c eb a2 74 bd 16 d0 ff bc
       0.0033786045 0.027949555 -0.059725683 -0.031227153
0002a0 0d 1b 73 3d 07 6b df 3a 54 40 7b 3a 3e 50 85 bd
       0.05935197 0.0017045446 0.0009584476 -0.065094456
0002b0 61 19 53 bd 7b 29 cc bc d7 6d 6e 3d 88 bd 9e bd
       -0.051537875 -0.024922123 0.05821022 -0.07750994
0002c0 29 0e a3 3d 57 39 3c 3d 79 7a e1 bb cb 9d 2e 3b
       0.07961685 0.04595312 -0.006881055 0.0026644345
0002d0 e9 99 9d 3d 20 84 df bd 5e 36 36 3d 78 77 32 bd
       0.07695372 -0.10913873 0.044485442 -0.043570966
0002e0 f0 e3 bc 3d 01 d9 c8 3b 40 ae 99 3a fd 95 19 bd
       0.09223163 0.0061293845 0.0011724904 -0.037496556
0002f0 35 91 ae ba 27 b3 6b 3c 40 98 48 3d c2 07 f7 bc
       -0.0013318422 0.014385975 0.048973322 -0.030155066
000300 b5 79 82 3d 3b f4 09 bc 47 f6 11 bd 84 85 24 3d
       0.0637087 -0.0084200455 -0.03563526 0.040166393
000310 e3 02 2d 3d dc b7 41 3d 2a 19 a1 39 c5 40 bc 3d
       0.04223908 0.047294483 0.00030727062 0.09192041
000320 fb 66 bf 3c 85 64 df 3c 31 df b8 bb dc 19 e4 bb
       0.023364535 0.027269611 -0.005641841 -0.0069610905
000330 9a b4 bc 3d 2f 2d 94 bc 91 40 a1 bd e3 ed 0d 3d
       0.092141345 -0.018087951 -0.07873643 0.034650695
000340 05 4d 97 3b f6 a3 aa bd a1 ac 01 bd 7b d7 1f 3d
       0.0046173357 -0.08332054 -0.031658772 0.039023858
000350 4f 0e 3f bc a0 06 8a 3d 18 0c 23 bd 2f a3 33 3d
       -0.011661126 0.06739545 -0.039806455 0.043856796
000360 07 dc 47 3c 7f 80 03 bc c5 a7 55 bd c1 e4 71 3c
       0.012198455 -0.008026241 -0.05216195 0.014764012
000370 48 bb 4a bd 9c 58 5f 3c a8 77 aa bd 8d 21 69 89
       -0.04949501 0.013631966 -0.08323604 -2.806213e-33
000380 d5 38 80 3c d2 ad 56 bc e3 72 84 bc 9a 4a 1d 3d
       0.0156521 -0.013102965 -0.016168064 0.038401224
000390 58 be 61 3d 5f c7 30 bd 63 3c 9d 3d 9d ee ab 3c
       0.055113167 -0.043158885 0.076775335 0.020987803
0003a0 09 20 02 3d 22 bd 22 3e bc 02 0e 3d bc 19 a9 bd
       0.031768832 0.15892461 0.034670576 -0.082568616
0003b0 67 4f 07 bd 8e 4f 64 bd 51 61 d3 3c 6e 85 d0 3c
       -0.03303471 -0.05573993 0.02580324 0.02545425
0003c0 b5 a7 39 3b bf 80 9c bd ec 77 8b 3d 36 31 a0 bd
       0.002832872 -0.07641744 0.06809983 -0.07821886
0003d0 5e 1d 56 bd e4 97 1f 3d eb ca 87 bd e6 8e bf 38
       -0.0522741 0.038963214 -0.066305004 9.1342066e-05
0003e0 e4 27 91 3d 4d c0 3e bd 5f fd 5a 3d a4 ca c8 3b
       0.07087687 -0.04657011 0.05346429 0.0061276723
0003f0 cc e6 8b bd ea a7 1c bd d8 35 54 bd 75 ec 86 bd
       -0.068311304 -0.038246073 -0.051809162 -0.06588069
