data/embeddings_cache/ab218d74-30be-48de-b7a1-22af61d6b623.npy (npy, 1664 bytes, 1 tensors)

array f4 [384]
0	0xbd01b660	-0.031668067
1	0xbce349a1	-0.02774507
2	0xbc6b3f3d	-0.014358339
3	0xbd103b3f	-0.03521275
4	0xbc7cc032	-0.015426682
5	0x3cfdf7c0	0.031001925
6	0x3c9d7a3b	0.019223323
7	0x3ca74327	0.020417763
8	0xbe09d3cc	-0.134597
9	0xbcaf7bfb	-0.021421423
10	0x3aab58f6	0.0013072777
11	0xbbe437f0	-0.006964676
12	0x3d9f6692	0.077832356
13	0xbc68faa8	-0.014219917
14	0x3d907ebb	0.07055422
15	0x3d9d6d00	0.07686806
16	0xbc3f6fa9	-0.011684337
17	0xbd844b42	-0.06459667
18	0x3d68814c	0.056763932
19	0xbd0d187b	-0.034447175
20	0xbd27510d	-0.04084878
21	0x3cc85358	0.024453804
22	0xbdfc0ecc	-0.1230751
23	0x3bffc475	0.007805402
24	0xbcb2c58f	-0.021822719
25	0xbaa9ad10	-0.0012945253
26	0x3d25bda3	0.040464055
27	0xbdc41722	-0.09574725
28	0xbd0d36e2	-0.03447617
29	0x3d963eea	0.07336219
30	0xbc59d36a	-0.013295034
31	0x3c2d09ee	0.010561449
32	0xbb608b25	-0.0034262624
33	0xbd3c9a64	-0.046045676
34	0x3d195900	0.037438393
35	0xbbe56a0f	-0.0070011686
36	0xbd018732	-0.031623073
37	0x3d1d95c8	0.03847292
38	0x3d066279	0.032808755
39	0xbccd8c63	-0.025091356
40	0x3d3e875b	0.046515804
41	0xbd074e62	-0.033033736
42	0x3cdc18ec	0.026867352
43	0xb9ba48fa	-0.00035531056
44	0x3d6d2aa2	0.057901986
45	0xbd486d00	-0.048932076
46	0x3d9bcf14	0.076078564
47	0xbce49738	-0.027904138
48	0xbdd682a2	-0.10474135
49	0xbbadbbb2	-0.005301916
50	0xbd1eb2b5	-0.038744647
51	0x3da3c975	0.07997409
52	0xbd293802	-0.04131318
53	0x3d0de013	0.034637522
54	0x3d4020a1	0.046906117
55	0x3cb69de3	0.022292083
56	0x3d86b7c7	0.065780215
57	0xbd6b3428	-0.057422787
58	0x3c88a952	0.0166823
59	0xbdd1079d	-0.1020653
60	0xbdce4469	-0.10071642
61	0xbd917dd3	-0.07104077
62	0x3d0160ed	0.031586576
63	0xbc2b2e2a	-0.010448018
64	0xbc61e02e	-0.013786359
65	0x3d1e2ebf	0.0386188
66	0x3cec90b4	0.028877594
67	0x3d56d69d	0.052450765
68	0xbd8967ed	-0.067092754
69	0xbcb19e3b	-0.021681895
70	0xbd10ff05	-0.035399456
71	0xbcd626bd	-0.026141519
72	0x3d672ec4	0.056441084
73	0x3d446905	0.047951717
74	0xbd92855c	-0.071543425
75	0x3d022907	0.031777408
76	0x3d19e134	0.037568286
77	0xbc8409e9	-0.016118007
78	0xbd7299b9	-0.059228633
79	0x3d9cd84f	0.07658445
80	0x3d2d5228	0.04231468
81	0x3c8fd7a9	0.01755889
82	0xbcb51cf6	-0.022108536
83	0xbceef3fc	-0.029169075
84	0x3df4117d	0.11917398
85	0xbd11f34d	-0.03563242
86	0xbd168704	-0.036749855
87	0xbdae44d1	-0.085092194
88	0xbc3c7dcb	-0.011504601
89	0xbdf67f07	-0.12035947
90	0x3ceeb691	0.029139789
91	0x3dca0f57	0.09866207
92	0x3d684702	0.056708343
93	0xbdc61d28	-0.0967353
94	0xbd3a6350	-0.045504868
95	0x3cd25ab5	0.025678018
96	0x3d270c10	0.040782988
97	0xbd342528	-0.043980747
98	0x3cc84600	0.024447441
99	0xbd26dba8	-0.040736824
100	0xbb6a3550	-0.0035737343
101	0x3c68f4b8	0.014218502
102	0xbd5cadb6	-0.0538766
103	0xbc12a5b7	-0.008950642
104	0xbd5344ff	-0.05157947
105	0xbdcaa55a	-0.098948196
106	0xbbd499e4	-0.0064880718
107	0x3db9dc38	0.090752065
108	0x3cb8387a	0.022487868
109	0xbd887648	-0.06663185
110	0x3d70b1d1	0.05876333
111	0x3c3d89e6	0.011568522
112	0xbcdc19e5	-0.026867816
113	0xbcebf6d5	-0.028804222
114	0xbd0791b9	-0.033097956
115	0x3c418209	0.011810788
116	0x3c3723ea	0.011177996
117	0xbd5290ea	-0.051407732
118	0x3c8d2939	0.01723157
119	0x3c2b16c5	0.01044244
120	0x3d32705f	0.043564197
121	0x3d113521	0.03545106
122	0xbdf2e522	-0.1186011
123	0xbca2a243	-0.019852763
124	0x3da2edbd	0.07955501
125	0x3c92ac7a	0.017904509
126	0x3ae542e9	0.0017491254
127	0x3cff40b2	0.031158779
128	0x3c2f69bd	0.010706362
129	0x3da13e0b	0.07873162
130	0x3dcac7b6	0.09901373
131	0x3c4ff54f	0.0126927635
132	0xbd5f675e	-0.054541938
133	0x3cc9d006	0.024635326
134	0xbbffe6dd	-0.0078095035
135	0x3d822cf9	0.06356234
136	0x3d0dc101	0.03460789
137	0xbd08c273	-0.033388566
138	0x3c3d5843	0.011556688
139	0x3cf83733	0.030299759
140	0x3b81f295	0.0039656856
141	0x3c9c1486	0.019052755
142	0x3d22af2d	0.039717842
143	0x3b16f32c	0.0023033125
144	0xbd09aea0	-0.0336138
145	0x3d8ccf4e	0.06875478
146	0x3bbf6552	0.0058409357
147	0x3d75c6ca	0.060004033
148	0x3ba120ec	0.0049172547
149	0xbc5fae10	-0.01365234
150	0xbe089b63	-0.13340525
151	0x3cb77008	0.022392288
152	0xbcedaa03	-0.029011732
153	0xbde1f899	-0.11033744
154	0x3d25ca83	0.040476333
155	0xbcd2e8cf	-0.025745777
156	0xbd228406	-0.03967669
157	0x3cb2949f	0.021799384
158	0xbdd3a034	-0.10333291
159	0xbd3d7dca	-0.04626254
160	0x3c8d9edf	0.01728767
161	0xbd03de72	-0.032194562
162	0xbc736894	-0.014856476
163	0x3d647acc	0.05578117
164	0x3dd8e5f8	0.10590738
165	0xbcb8c1bf	-0.022553323
166	0x3da6be08	0.08141714
167	0x3d4db9a2	0.05022586
168	0xbd259893	-0.04042871
169	0x3ce491c8	0.027901545
170	0xbc99e336	-0.0187851
171	0x3d0ec7eb	0.034858625
172	0xbcd551ad	-0.026039923
173	0x3d454c54	0.048168495
174	0xbd763c6b	-0.060116213
175	0xbdce9f45	-0.10088972
176	0x3cfbc4c3	0.030733472
177	0xbcd78b0d	-0.026311422
178	0x3d3051b7	0.04304668
179	0x3da2e5e6	0.07954006
180	0xbd95b068	-0.073090374
181	0xbd1fa24e	-0.038973145
182	0x3bb68513	0.005570063
183	0x3d04775c	0.032340392
184	0xbd0dc7f3	-0.034614515
185	0xbd4333d5	-0.047656853
186	0xbdbd16f3	-0.09232893
187	0x3ce98a9d	0.028508479
188	0xbd0a6058	-0.033783287
189	0xbce9cdf7	-0.028540595
190	0xbd2aaedf	-0.041670676
191	0x3d182a91	0.03714997
192	0xbcb5fd42	-0.02221549
193	0x3bc16629	0.005902071
194	0xbc475429	-0.012166061
195	0xbc2abd19	-0.010421061
196	0xbd4e5240	-0.05037141
197	0x3d4015b5	0.0468957
198	0xbd8031e9	-0.062595196
199	0xbd5b7a1b	-0.053583246
200	0xbcb3b4b8	-0.02193676
201	0x3c8c0165	0.017090509
202	0xbd16036f	-0.03662437
203	0xbd3ccee8	-0.04609576
204	0xbc0843f0	-0.008316979
205	0x3d4020d7	0.04690632
206	0x3d8287dc	0.06373569
207	0x3d49ba6e	0.04925006
208	0xbdd7111b	-0.105013095
209	0x3bd31243	0.006441386
210	0x3cfe9952	0.031078968
211	0x3d0d8dad	0.03455894
212	0x3de08d04	0.109643966
213	0x3cb8763a	0.022517312
214	0xbd1f6a62	-0.038919814
215	0xbcb05db1	-0.02152905
216	0xbcca569b	-0.0246995
217	0xbdc2d66e	-0.095135555
218	0xbd8d558b	-0.06901082
219	0x3d233565	0.039845843
220	0x3d33f31d	0.043933023
221	0xbbdc395a	-0.006720704
222	0xbb40b6f9	-0.0029405935
223	0x3d3f4356	0.046695076
224	0xbc114fb9	-0.008869105
225	0xbc150c19	-0.009097123
226	0x3cd5021a	0.026001979
227	0xbdce4e7c	-0.100735635
228	0xbd48d967	-0.049035456
229	0xbd122011	-0.035675112
230	0xbcd62377	-0.026139958
231	0x3c66a8f1	0.014078365
232	0x3cb345d8	0.02188389
233	0x3c424216	0.011856576
234	0xbb34d2b7	-0.0027591416
235	0x3d09b03b	0.033615332
236	0x3d8a01a4	0.06738594
237	0x3d1dd7b8	0.038535804
238	0x3aa0672d	0.001223778
239	0xbde732bf	-0.11288976
240	0x3d43dd3e	0.047818415
241	0x3c2e164d	0.010625434
242	0x3c819508	0.015818134
243	0x3d74e69b	0.059790235
244	0xbaede7e8	-0.0018150778
245	0xbc28c855	-0.010301669
246	0x3d3c5986	0.045983814
247	0x3db2ed91	0.087367184
248	0xbd8f41c8	-0.06994969
249	0x3c20bac2	0.0098101515
250	0x3cf0c30f	0.029389886
251	0x3d5b9f59	0.053618763
252	0xbd6e7e9b	-0.05822621
253	0xbd5f8439	-0.054569457
254	0xbd11eef9	-0.035628293
255	0x3cedf0ed	0.029045546
