data/embeddings_cache/b6b46c13-89ec-449b-bc4b-8e08d83ac68a.npy (npy, 1664 bytes, 1 tensors)

array f4 [384]
000000 c9 25 88 bc 64 c5 8b 3d a1 a8 b7 bc 7d 62 56 3c
       -0.01661958 0.06824759 -0.022419276 0.013085005
000010 c6 83 10 3d 88 ce 86 bc 6f 77 04 bc e2 ad 8c 3d
       0.03528192 -0.016455904 -0.008085116 0.06869103
000020 68 54 ed 3c a1 96 6c 3b a2 52 a6 bc 90 9c fd bc
       0.028970912 0.0036100524 -0.020303074 -0.030958444
000030 9b 46 80 bd 76 a0 11 3c 5e 62 db b8 39 40 8a bc
       -0.06263467 0.0088883545 -0.00010461056 -0.016876327
000040 04 5a 6b bd 10 f0 af bd 56 53 e6 3c 58 d5 74 3b
       -0.057458892 -0.0859071 0.02811591 0.0037358608
000050 a2 75 bc 3d ea 20 59 bd c1 49 7f 3d b7 81 d1 3b
       0.09202124 -0.053009905 0.062326197 0.006393637
000060 f7 1c 05 3c a5 59 46 bd c6 06 47 bb a9 a7 73 3c
       0.008124582 -0.048425335 -0.0030369028 0.014871516
000070 e8 ee 5d bd a7 80 a5 3b d7 37 11 3e 7a 07 ad bc
       -0.054182917 0.005050737 0.14181457 -0.02112173
000080 b1 0d 4c 3c bb a9 db 3c a6 d1 fe 3c b6 d1 bd 3d
       0.012454436 0.026814332 0.031105828 0.09268515
000090 3c 16 2e 3c 2e 75 78 bd 7a 62 65 bd ea 93 9e bd
       0.010625418 -0.060658626 -0.056002118 -0.07743056
0000a0 97 37 82 3d b3 0e 29 bd 1f 75 dc bc cd 3e d8 bc
       0.06358259 -0.041273784 -0.026911316 -0.026397133
0000b0 19 6d 10 bc 4f 79 a7 bd b3 65 94 bd 9a da 88 bc
       -0.008815073 -0.08177435 -0.0724596 -0.0167058
0000c0 91 20 72 3d ef 0d 16 3d 5f 90 4a bd e5 6f 9e bd
       0.05911309 0.03663438 -0.04945409 -0.07736186
0000d0 2a 6d 2b 3d b3 eb b0 bd 39 60 4d bd 57 5f c1 3d
       0.041852154 -0.08638706 -0.050140593 0.09442013
0000e0 b5 58 69 bc cb 0e 3f 3d 2a 88 9c bc e7 95 d7 bd
       -0.014242341 0.046644967 -0.019107897 -0.105266385
0000f0 ef cc 95 3d b8 64 0a be e5 f7 b4 ba 8c b1 37 bc
       0.073144786 -0.13514984 -0.0013806788 -0.011211764
000100 a9 26 34 3c 1a 30 ae 3d 4b 9c 13 bd 6c 76 9c bc
       0.010995545 0.085052684 -0.036037724 -0.019099437
000110 30 59 6d bd 8e 95 1d 3c 4c 4a 9e 3c da 1c e5 bc
       -0.057946384 0.009618176 0.019322537 -0.027967859
000120 fe 9c 82 bd cb 04 6b bc 83 d3 a2 3d 09 96 21 3c
       -0.063776 -0.014344404 0.07950499 0.009862431
000130 c1 ff da bc 42 e4 0d 3d 06 9a 56 3d be 14 25 bb
       -0.026733281 0.03464151 0.052392982 -0.0025189365
000140 5f 58 4d bd dd 56 96 bd 90 88 e3 bc e5 8f 97 3d
       -0.050133105 -0.073407866 -0.027775079 0.074004926
000150 5a 75 45 3c bb 34 af 3d 6e ee 9d 3c d1 9a 2a 3d
       0.012051905 0.085549794 0.019278731 0.04165155
000160 bb bd 8c 3c 2e 5e 93 ba f3 e4 5a bc ba fe ac bc
       0.017180314 -0.0011243278 -0.01336025 -0.021117557
000170 08 ad 05 bd 5a 6e 24 bc bf c2 e8 3b 23 c4 6b 3d
       -0.03263572 -0.0100360755 0.0071032937 0.057560097
000180 46 8e 36 bd 19 66 9a 3d 37 6b d4 3c e9 60 6b 3c
       -0.044569276 0.07539005 0.02593003 0.014366367
000190 b6 62 af bc fb 0f 9d 3d b1 c8 a9 3a 5f 40 21 3c
       -0.021409374 0.07669064 0.0012953487 0.009842007
0001a0 d2 6d d3 bc 0b 1f 56 3c 78 fc 92 3c 8a fc 95 bd
       -0.025809202 0.013068925 0.017942652 -0.07323559
0001b0 c1 31 9b 3d 13 a0 0a 3d 08 99 95 3c 97 27 b0 bd
       0.07577849 0.033844065 0.018261448 -0.08601301
0001c0 29 e5 73 bc 25 6e 0f 3d 1c 4b eb bc ea ea fa 3c
       -0.014886179 0.03501715 -0.028722338 0.030629594
0001d0 62 0a af bd 00 bb 06 3e 4a 9b 3d 3c 99 c6 7c 3d
       -0.08546902 0.13157272 0.011572668 0.061712835
0001e0 ff 8c ca 3d ce a9 e5 bc 17 02 26 bd a1 ea 11 bc
       0.09890174 -0.02803507 -0.040529337 -0.008906038
0001f0 15 5f c6 bb fe a9 00 bd 01 99 2a 3d ac ed ae 09
       -0.006053815 -0.031412117 0.041649822 4.2112482e-33
000200 e7 b3 87 3d 37 dd 4e bd 2c a9 84 3b 91 2f 7d 3d
       0.066261105 -0.050503936 0.004048487 0.06181294
000210 71 91 0f 3d ad bd 8b bc df 27 84 3d e1 81 15 3d
       0.035050813 -0.017058218 0.06452917 0.036500815
000220 a6 14 7a bd cf cf 5b bc e1 3c a5 bd 66 2b 8e bc
       -0.061054848 -0.013416245 -0.08068252 -0.017354678
000230 84 3c 0b bc b4 11 ba bc f0 d9 9f bd 85 e0 08 bd
       -0.008498315 -0.02271352 -0.0780524 -0.033417244
000240 b5 df f3 bc cc 57 06 3c 18 2a d8 3c e1 6d ce 3c
       -0.029769758 0.008199643 0.02638726 0.025198879
000250 4e 46 12 3d 28 54 76 bc 5f 72 88 bc 17 cf 81 bd
       0.03571158 -0.015034713 -0.016656099 -0.063383274
000260 57 25 e2 bc 0b ba 35 bb 9e a6 cb ba f9 21 4c 3b
       -0.027605696 -0.0027729298 -0.0015537327 0.003114818
000270 f9 36 9d bc d4 74 28 3c 89 29 d2 bc 63 5b 1b bd
       -0.019191252 0.01028176 -0.025654571 -0.03792895
000280 81 3e 3b bd 85 0a b7 3d 47 9c ed 3b ec 72 00 3d
       -0.045713905 0.08937553 0.0072512957 0.031359598
000290 51 78 6e bc d0 6d 4f 3d 07 04 b3 bd f2 93 05 bd
       -0.014555053 0.050641835 -0.087410025 -0.032611795
0002a0 b3 86 c8 3c 94 d6 5e bd 46 39 2c 3c a8 86 44 bd
       0.024478292 -0.054403856 0.010511702 -0.04797998
0002b0 71 f2 91 bd 21 73 3c bd 95 87 17 3d 37 46 ee 3c
       -0.0712632 -0.046008233 0.036994535 0.029086215
0002c0 9a d3 17 3e 9a 8e 36 3d 63 34 d9 bd ab 90 8d bc
       0.14826813 0.04456959 -0.10605695 -0.017280897
0002d0 75 51 ea bc 80 08 b4 bd 52 00 ed 3c 81 73 88 bc
       -0.028603295 -0.08790684 0.028930817 -0.016656639
0002e0 fe 57 63 bc 72 90 37 b9 88 bf 92 3c fb 9a b4 bd
       -0.013875959 -0.0001750605 0.017913595 -0.08818623
0002f0 52 9a d9 3c 8e 9e 91 3d c5 d8 bc 3c 9d 91 b1 bb
       0.026562843 0.0711032 0.023052583 -0.00541897
000300 61 37 a1 3b ea b4 c2 3c ab 72 4c 3d 5e 76 ee bb
       0.0049199318 0.023767907 0.049914043 -0.007277294
000310 70 a6 60 3d cd 0b 4b bb c8 1b 24 3c 20 40 6e bc
       0.054846227 -0.0030982376 0.010016389 -0.014541656
000320 23 59 37 3b 69 43 07 3d 9a 31 4a bd ce b1 72 bc
       0.0027976714 0.03302327 -0.04936371 -0.0148129
000330 ae 95 52 3d 5a 23 78 3d 1b 89 fe bc 87 13 14 3d
       0.051412277 0.06058059 -0.031071236 0.036151435
000340 5d 33 9a 3c 66 68 eb bd 82 28 c4 bd 3b b6 50 3d
       0.01882332 -0.11494522 -0.09578039 0.05095504
000350 8a 51 be 3c 9e 71 d0 3d 17 07 a0 3c 96 69 d6 3b
       0.02323224 0.10177921 0.01953463 0.0065433485
000360 26 5c c6 3c b7 b8 2b bd 35 99 50 3c 0b 0f a5 bc
       0.024213862 -0.041924205 0.01273184 -0.020148775
000370 be 61 08 bd 85 c4 a4 bd 43 b5 69 bd 54 dc bc 89
       -0.03329634 -0.080452956 -0.05705763 -4.546655e-33
000380 37 d2 30 3d f4 7f 41 bd 35 21 09 bd 23 bf ce 3c
       0.043169226 -0.047241166 -0.033478934 0.025237625
000390 92 ac c6 3d 97 95 9f 3d 89 30 ba 3d 37 ca 2c 3d
       0.09700884 0.07792204 0.090912886 0.042185035
0003a0 4c cf 4b 3b 1d eb 9b 3d d7 73 0b 3d a5 c5 68 bd
       0.00310989 0.07613204 0.03404602 -0.056829114
0003b0 b6 9f 63 3d 48 54 02 be dd 6c 81 3c af db e4 3c
       0.055572234 -0.12727463 0.01579898 0.027936785
0003c0 a2 0c fb 3c 32 91 41 bd 29 cc 5a 3b d4 c8 88 bd
       0.030645672 -0.04725761 0.003338585 -0.0667893
0003d0 f3 da 7f bd c4 7a 01 3d 18 fc 07 bd c7 6c 95 3d
       -0.062464666 0.03161122 -0.0331994 0.07296138
0003e0 0c 0a 50 3b 5c 0f 36 bd 09 f3 9c 3d 9c 2f 03 3d
       0.003174427 -0.04444824 0.07663543 0.032027826
0003f0 04 18 82 bd 3f 54 8b bc cc 15 70 bc c7 90 9d 3d
       -0.06352237 -0.017007945 -0.014653634 0.0769363
