data/embeddings_cache/edbf6c40-06b5-4578-b006-cd371169b5ea.npy (npy, 1664 bytes, 1 tensors)

array f4 [384]
00000000: f652 85bc d775 823d f1ae d0bc 21aa 543c
00000010: 25d2 0e3d 9474 8bbc 85f4 2abc dd7b 8a3d
00000020: a7dd ea3c a5aa 623b 4255 9dbc 7b5c 03bd
00000030: 82b1 7abd 7a5c 113c 19d6 353b f92f 8abc
00000040: 0342 56bd 5369 b8bd a5e4 da3c 0b9e 803b
00000050: f21c bc3d 6822 58bd 699b 763d af1a d73b
00000060: 6455 083c bc91 5dbd 08f5 9dba 058a 893c
00000070: fc82 5abd 4906 b73b 91ff 113e 1c63 a4bc
00000080: 1c48 3f3c 7c52 cc3c a184 073d fd5e be3d
00000090: d2c4 313c da16 78bd e873 72bd 0130 9fbd
000000a0: 6bfd 873d c2bf 30bd 80af d9bc 0a28 d7bc
000000b0: 46f9 f7bb a8d0 a2bd 043e 94bd 88c6 88bc
000000c0: 3537 773d da70 063d bba8 41bd 212e 9abd
000000d0: f712 333d 5104 adbd 5362 50bd 781d b83d
000000e0: 14f3 37bc 85e7 363d c7d8 90bc eb83 d5bd
000000f0: e241 973d 74af 0bbe 9184 9239 e815 64bc
00000100: b3ef 0a3c 5e66 b03d 0a62 1fbd f407 b4bc
00000110: 6af2 66bd e30c 1c3c d38b 8f3c 8d41 f0bc
00000120: 82c3 86bd d698 79bc eef4 a53d 955d 483c
00000130: b1dc c3bc f619 103d 9185 603d 138b 4abb
00000140: 8de3 58bd 11bf 94bd 4f79 ebbc 5852 9a3d
00000150: afc2 253c 782e ac3d b455 b03c 483f 363d
00000160: fa7b b13c 5031 983a d687 4dbc 37f4 7dbc
00000170: 1ee7 23bd 9eb4 07bc 88c7 b83b b221 6e3d
00000180: 2a62 3abd 1ab2 913d c6c1 b83c c772 413c
00000190: 340d cfbc 8385 9a3d 60d7 da3a bb3e 553c
000001a0: 5757 e2bc 82e5 563c 77db 833c 3b26 9cbd
000001b0: fcb0 9b3d e089 0c3d 49ed a23c 0e01 b4bd
000001c0: 4167 35bc 234d 153d 534f c0bc c557 093d
000001d0: cd0f aebd a43a 063e 7d65 423c 7f1e 753d
000001e0: 65a0 c93d f6b3 debc 29b1 19bd c2b9 0fbc
000001f0: b878 8cbb e8d9 efbc 1233 1e3d d26c c109
00000200: 7304 863d b1eb 41bd 2062 e73b b211 7f3d
00000210: 58e7 103d fdbc 8cbc ecb6 873d 777c 193d
00000220: ab24 7bbd 4a03 62bc 6491 a9bd 2951 83bc
00000230: 472d 0cbc 085d 9ebc 9efa 9fbd 7f3e 09bd
00000240: ec58 e3bc 8cd2 163c 75c9 c93c 8424 da3c
00000250: 9206 163d 1f62 8ebc a4ed 79bc 963e 88bd
00000260: 9e00 e7bc 6a27 aaba dc53 04b9 0aff 253b
00000270: 0daa 99bc 7cc0 023c 1a28 f2bc 0ea3 0abd
00000280: 48fe 3abd ab46 b63d bf94 d63b 0129 003d
00000290: 333c 8dbc 2853 5b3d f657 b6bd cc4f ddbc
000002a0: 40f9 c13c 5bef 51bd bba6 763c 49cc 43bd
000002b0: 15e9 94bd 9255 40bd ee9e 1a3d 4b34 f13c
000002c0: 3ba2 1a3e b8c0 3d3d ec95 d1bd 1f37 aabc
000002d0: 4dc7 cbbc 7735 b5bd d94f e73c 6889 8dbc
000002e0: d302 4dbc eda9 bfba 3ef6 913c f763 b8bd
000002f0: a240 d13c 499e 8c3d d273 a73c 2815 3fbb
00000300: e12a ca3b 05e1 c63c cabb 463d f370 fdbb
00000310: f03e 673d 1013 b1bb 513c 2a3c 46e7 55bc
00000320: 96ed 153b 7d23 043d 02c0 4bbd 6e4b 82bc
00000330: 51d0 593d 7a8b 813d 6f03 05bd cdaf 1c3d
00000340: 39b8 9c3c a1d1 e3bd 71ee c5bd 69bd 423d
00000350: d2c8 b93c 8aa9 cc3d cb7f 973c b133 e33b
00000360: 1963 e23c 041d 35bd 7978 4c3c 0967 aabc
00000370: 09c0 00bd be08 9fbd 9fa6 72bd c55c ca89
00000380: fbf1 2c3d 9e10 48bd 4fdd 06bd db3e d53c
00000390: eee2 d03d d56d 9d3d 920b b73d a239 223d
000003a0: bcdd 2b3b 9a2f 973d 5a5a 0e3d 98d3 6fbd
000003b0: 17c1 603d 9fba 00be 5007 723c e2ce cc3c
000003c0: 10c0 ff3c 1bcc 3ebd 9d96 8f3b 59b8 8abd
000003d0: d8a5 7fbd 8e7c e83c 63a3 0ebd 34a6 903d
000003e0: 5392 193b 2637 3dbd 02ce 9e3d 970f 023d
000003f0: efd8 7dbd cc2d 95bc 1819 76bc ea1e 9f3d
-0.01627491 0.063701324 -0.025474044 0.012980015 0.03486838 -0.017023362 -0.010434275 0.06761906
0.028670145 0.0034586575 -0.019205693 -0.032070618 -0.06120444 0.008872146 0.002774602 -0.016868578
-0.052309047 -0.09004464 0.026720354 0.00392509 0.091852084 -0.052767187 0.060206804 0.00656446
0.00832114 -0.05409406 -0.0012051174 0.016789446 -0.053347573 0.005585466 0.14257647 -0.02006679
0.011674907 0.024941675 0.03308547 0.09295461 0.010850148 -0.060568668 -0.059192568 -0.07772828
0.066401325 -0.043151625 -0.026572943 -0.02626421 -0.0075675575 -0.07949954 -0.07238391 -0.01669623
0.060355384 0.032822467 -0.047280055 -0.0752833 0.04371926 -0.08448089 -0.05087502 0.08989996
-0.011227388 0.044654388 -0.017681492 -0.10425552 0.07385613 -0.13641149 0.0002794606 -0.0139212385
0.00848 0.08613275 -0.038911857 -0.021976449 -0.056383528 0.009524557 0.017522728 -0.029328132
-0.06580259 -0.015234193 0.08103357 0.012229343 -0.023908945 0.03518101 0.05481488 -0.0030905649
-0.052951384 -0.072630055 -0.028744368 0.07535237 0.010117217 0.08407301 0.021525241 0.044493943
0.021665562 0.0011611376 -0.012544593 -0.01550012 -0.040015332 -0.008282809 0.0056390204 0.058137603
-0.045503773 0.07114048 0.022553336 0.01180715 -0.02527485 0.075449966 0.0016696267 0.013015444
-0.027629538 0.013116242 0.01609586 -0.076244794 0.076021165 0.034311175 0.019888537 -0.08789264
-0.011071981 0.036450516 -0.023475325 0.03353097 -0.084991075 0.13108307 0.011865017 0.059843536
0.09845046 -0.027185421 -0.03752247 -0.008772315 -0.0042868517 -0.02927871 0.038622923 4.6565394e-33
0.06543817 -0.047343913 0.007061258 0.062272735 0.035376877 -0.01717996 0.066266865 0.037472215
-0.061314266 -0.0137947295 -0.08279684 -0.016029911 -0.008555717 -0.01933147 -0.07811473 -0.033506867
-0.027752362 0.009205472 0.024632195 0.02662874 0.03662736 -0.017380772 -0.015254412 -0.06652562
-0.028198536 -0.0012981717 -0.00012619741 0.0025329017 -0.018757844 0.007980462 -0.029560138 -0.033846907
-0.045652658 0.089001976 0.0065484936 0.031289104 -0.01724062 0.0535461 -0.08903496 -0.02701559
0.023678422 -0.051253658 0.0150544 -0.047802243 -0.07271019 -0.046956606 0.037749223 0.02944388
0.15100949 0.04632637 -0.102336735 -0.020778237 -0.024875307 -0.08848088 0.028236317 -0.017277434
-0.01251288 -0.0014622785 0.017817613 -0.09003442 0.025543515 0.06866128 0.02044097 -0.0029156897
0.0061696623 0.02427722 0.048518933 -0.007734412 0.056456506 -0.0054038838 0.010390357 -0.013055628
0.0022877208 0.032260407 -0.04974366 -0.015905108 0.05317718 0.06325431 -0.032473978 0.038253594
0.019130813 -0.11123968 -0.0966462 0.047543917 0.022678766 0.099932745 0.018493554 0.0069336523
0.027635144 -0.044217125 0.012479895 -0.020801084 -0.03143314 -0.07765339 -0.059240934 -4.871697e-33
0.042222958 -0.048843972 -0.0329259 0.026030948 0.101995334 0.076869644 0.08937754 0.039605744
0.0026224693 0.07382126 0.034754135 -0.0585514 0.054871645 -0.1257119 0.014772251 0.025000993
0.031219512 -0.04658137 0.004381968 -0.06773443 -0.06241402 0.028379705 -0.034823786 0.07062951
0.0023433163 -0.04619517 0.077541366 0.03175315 -0.061974462 -0.018210314 -0.015020631 0.07769568
