data/embeddings_cache/ef0d8139-b075-422c-927f-c2dd1fa41051.npy (npy, 1664 bytes, 1 tensors)

array f4 [384]
000000 75 a2 41 bd 61 e5 ce 3d 30 8b 1d bb e2 1c 0c 3d
       -0.04727407 0.10102344 -0.002403926 0.034207232
000010 8c f7 c2 bc 0e d1 f5 bc e6 1f 42 bd d6 09 10 bc
       -0.02379968 -0.030006912 -0.047393702 -0.008791408
000020 a7 6b 9e 3c 82 e7 08 bc d7 20 ad bd 4e 61 4b bd
       0.019338442 -0.008355977 -0.08453529 -0.049653344
000030 e9 dc 7b bd df 3a 97 3c 6c c7 52 3d 04 5d bd 3c
       -0.061489973 0.01846069 0.051459715 0.023115642
000040 73 d3 88 bd b7 47 a0 bd a8 42 2b 3d ee 1e 08 be
       -0.06680956 -0.078261785 0.041811615 -0.13293049
000050 70 7a a2 3d 28 e2 9a bc d7 ae 70 3c 64 05 6c bc
       0.07933509 -0.018906668 0.014690123 -0.014405582
000060 99 2d 38 3b 48 c8 0f 3d c0 0b f0 bc b2 2c d0 3c
       0.002810335 0.035103112 -0.029302478 0.025411937
000070 be 22 35 3d 6c 34 61 3d db 94 cc bb 43 9a 42 bd
       0.044222586 0.054981634 -0.006243331 -0.047510397
000080 23 12 a7 bc ec 9b 2b 3d 15 8a 69 3c 0a f7 96 3d
       -0.02039439 0.041896746 0.014254113 0.07371338
000090 00 35 40 3d 54 d3 2d bd f1 59 4a 3d 50 47 dd b9
       0.046925545 -0.042437866 0.04940218 -0.00042205537
0000a0 93 21 ce 3d ff c3 a2 3c 41 2a 9c bd 0e 74 9a bd
       0.100649975 0.019868849 -0.07625247 -0.07541667
0000b0 dd 34 ea 3c 66 10 9c bd 13 21 8e bc 50 7c 3f bd
       0.02858966 -0.07620315 -0.017349755 -0.046749413
0000c0 f5 2c d3 bc 9b 40 a4 3d 24 ac 43 bc 93 80 a3 bd
       -0.025778273 0.08020135 -0.011942897 -0.07983508
0000d0 2b 37 e0 3c a1 a6 68 3d 62 71 b4 3c 20 35 b4 3d
       0.027370056 0.056799535 0.022026721 0.08799195
0000e0 50 e8 8c bc 50 cc 8c 3c 82 c6 be 3c 48 1d b7 bd
       -0.017200619 0.017187268 0.023288015 -0.08941132
0000f0 a0 0d 63 3d 87 16 c1 bd 8e 30 39 bc 9d 18 43 bd
       0.055432916 -0.09428125 -0.01130308 -0.047630895
000100 b4 29 3e 3d a9 b6 bb bb 1b ab 66 bd 9c 76 38 bc
       0.04642649 -0.005728562 -0.056315523 -0.011258747
000110 16 62 20 3d b8 56 3b 3c 86 11 8a 3d 18 62 47 bd
       0.039156042 0.01143425 0.067416236 -0.048677534
000120 7c 83 29 bc 02 3c 8b bd b9 a2 99 3a 79 af d8 bc
       -0.01034629 -0.06798555 0.0011721469 -0.02645086
000130 9e d4 cd bb f1 fb 33 3b 93 e4 c3 bc b3 ac 87 bb
       -0.0062814495 0.0027463401 -0.023912704 -0.0041404604
000140 a8 05 b7 bd e5 7e c9 bd 35 aa b0 bc 74 88 ae 3d
       -0.08936626 -0.09838656 -0.021565536 0.0852212
000150 0b b2 3b bd 29 63 63 3c c3 c6 d9 bc 8a 12 f6 3c
       -0.045824092 0.013878622 -0.026584035 0.030038137
000160 ff d4 18 3c 67 53 52 bd d7 9f bb bd 83 37 22 bd
       0.009328126 -0.05134907 -0.091613464 -0.03960372
000170 38 d5 ce bc aa fb 20 39 88 2b d6 bc 46 8f d1 3c
       -0.025248155 0.00015352541 -0.026143804 0.025581013
000180 d7 67 6d bc f1 81 5a 3d d4 ba 83 3c 7f f7 cc 3c
       -0.014490089 0.053346578 0.016080298 0.02502036
000190 34 5f 6c bc 60 a0 dd bc b9 52 12 3d eb fa df 39
       -0.014426995 -0.027054012 0.03572342 0.00042720823
0001a0 e3 c3 87 3d 51 7f ca bb 7d 20 53 bd 4b e9 78 3b
       0.06629159 -0.006179728 -0.051544655 0.003798085
0001b0 cb d4 55 bd 58 6e 94 3d ec 41 73 bc 7c 2f 8c 3d
       -0.05220489 0.07247609 -0.01484726 0.068449944
0001c0 95 8e a9 bc d4 79 35 3d d8 37 1b 3c b1 eb d4 3c
       -0.020697871 0.044305637 0.009473763 0.025991293
0001d0 5c 66 f1 bc e4 c4 00 ba 1b 4e 9c 3a 63 97 c1 3d
       -0.029467754 -0.00049121515 0.0011925133 0.09452703
0001e0 de 2c 20 3e 6d 24 15 bc 01 c1 15 bd bd b5 15 bd
       0.15642115 -0.009102923 -0.036561016 -0.036550272
0001f0 0d 10 3d bd 88 42 af bd 93 a4 d5 3d fd 50 87 09
       -0.046157885 -0.08557612 0.10431781 3.257623e-33
000200 09 ed bf 3d 1b 83 72 bc 42 94 8b 3d 56 69 29 bc
       0.09371383 -0.014801766 0.06815387 -0.010340055
000210 63 e5 d3 3d 03 22 02 3c cf c4 8f 3c a1 3c 09 3c
       0.103464864 0.007942679 0.0175499 0.008376271
000220 c1 52 77 3d da 15 0b bd 2d 55 98 bd 22 25 50 bc
       0.060381655 -0.033956386 -0.07438121 -0.012704166
000230 88 85 f1 3b ae e0 e7 bc 82 8a 92 bd 64 c2 8a bd
       0.0073706545 -0.028305378 -0.071553245 -0.06775358
000240 1b de 54 3d f0 3e 07 3d 23 86 3c 3d 45 2e 36 3d
       0.05196963 0.033019006 0.04602636 0.04447772
000250 b6 41 00 3d 93 b0 72 bd d3 a5 d8 bd ff 12 48 3c
       0.031312667 -0.059250426 -0.105785035 0.01221156
000260 cb d5 79 3d 25 fa e4 bc 91 70 f4 3c 7d b6 08 bc
       0.060994904 -0.02795131 0.029838832 -0.00834429
000270 96 52 c0 bd 37 36 14 bc 4e 46 1c 3d 7c 5e 14 3d
       -0.09390752 -0.009046129 0.038152985 0.03622292
000280 32 a1 78 bb 7d 09 2f 3d 00 07 03 3d 05 6b 6b 3c
       -0.0037937877 0.042733658 0.031989098 0.014368777
000290 97 33 65 3c e2 d4 c0 3c 4e 8f 52 bd b7 23 4d bd
       0.013989351 0.02353901 -0.051406197 -0.05008289
0002a0 82 55 76 3d 11 67 65 3c 56 3c 9d bc ae 4d 64 bd
       0.06014014 0.014001624 -0.01919381 -0.055738144
0002b0 09 66 72 bd 20 0e 2a bd b7 a7 38 3d 8c c7 a7 bd
       -0.05917934 -0.041517377 0.04508182 -0.081923574
0002c0 53 79 ab 3d 81 a4 6d 3d a2 a2 17 bd 2a 9a 1f 3c
       0.0837275 0.05801821 -0.037020333 0.009741345
0002d0 02 67 81 3d f6 3c bc bd 85 8e 5d 3d e5 4b 14 bd
       0.06318475 -0.09191315 0.054090995 -0.03620519
0002e0 35 dc 8b 3d e7 03 31 3d a1 89 d1 bc d5 11 31 bd
       0.068291105 0.043216612 -0.025578322 -0.043229897
0002f0 88 a6 05 3c ad 27 91 3c 15 76 64 3d b0 bf 19 bd
       0.00815738 0.017719114 0.055776674 -0.037536323
000300 8d 84 75 3d 67 a9 51 3c 60 ca 85 bc 10 67 62 3d
       0.059940863 0.012796736 -0.016331851 0.05527407
000310 d8 62 2d 3d 6a a7 73 3d 73 67 92 bc cf bd b4 3d
       0.042330593 0.05948583 -0.017871594 0.088252656
000320 c0 06 e2 3c 53 42 18 3c a6 bb a2 3b 3a 8e 95 bc
       0.02759111 0.009293157 0.004966217 -0.018256295
000330 04 22 a4 3d d8 2d ad bc 27 c1 78 bd d6 59 28 3c
       0.080143005 -0.021140024 -0.06073108 0.010275325
000340 6a c8 41 3a fe 62 cc bd 0f c0 33 bd c0 ae 19 3d
       0.000739223 -0.09979819 -0.043884333 0.03752017
000350 41 cb 7e 3b 98 e1 ab 3d 68 a6 28 bd 5c b8 17 3d
       0.0038878473 0.08392638 -0.041174322 0.037041053
000360 ba d1 1b bb 69 f6 3c bb c3 4b 86 bd 7e 99 0e 3d
       -0.002377613 -0.0028833395 -0.06557419 0.03481435
000370 7f 20 32 bd 58 e1 bb bc b3 cd ba bd ef 0f 66 89
       -0.043488022 -0.0229346 -0.09121265 -2.7692735e-33
000380 7a 38 5f 3c 26 31 e8 bb 4b 4b 4e bd 02 17 ec 3c
       0.013624305 -0.007085937 -0.050364774 0.028819565
000390 e4 d3 78 3d fd b9 29 bd 47 a8 c1 3d 94 a7 09 3d
       0.06074895 -0.041437138 0.094559245 0.03360708
0003a0 83 1f ac 3c 34 60 31 3e 5a c7 30 3d 97 74 e3 bd
       0.02101112 0.17321855 0.043158866 -0.11106222
0003b0 1e 8e 02 bd 57 8c 35 bd c6 f0 cf bb d5 b5 1a 3d
       -0.031873815 -0.04432329 -0.006345841 0.037771065
0003c0 5d 8f 5c bc f4 41 57 bd 98 bc 99 3d 62 76 ad bd
       -0.013461915 -0.052553132 0.075066745 -0.08469845
0003d0 d8 14 7a bd 2c 1a a1 3c 2f cf e2 bc 48 6e 5a bb
       -0.061055034 0.0196658 -0.027686683 -0.0033329893
0003e0 f6 45 55 3d 3c 33 3c bd c4 a1 de 3c cf 79 a3 bc
       0.052068673 -0.0459473 0.027176745 -0.019955544
0003f0 66 55 8d bd 1c 81 79 bd 6a 31 10 bd 0e de 20 bd
       -0.06901054 -0.060914144 -0.035203375 -0.039274268
